ml-embedded-evaluation-kit/resources_downloaded/object_detection/ssd_slim_120x160x1_yaw_v2_int8.tflite (tflite, 415376 bytes, 49 tensors)

model/basenet.0.0_conv/Conv2D i1 [16, 3, 3, 1]
00000000: 0b12 fc14 7f14 0315 00f5 effc f49d fdea
00000010: 7f03 1d7f 1723 f7f9 999b 0204 170a 1127
00000020: 0b09 ff81 0add 184f 812a 10d9 17c1 ef5a
00000030: 810d 50fd 071a 0f06 00fc 07fd 81fd 1027
00000040: 09de 4ce8 8147 17e5 fbe4 ea19 327f eddb
00000050: c1bd 7fc3 fd1b e601 ff00 2820 b597 ef7f
00000060: 40dd e0e6 81b1 2c66 4eff 0003 fef3 e00e
00000070: 7f4c f141 31ef 0be4 217f 1336 3900 20a8
00000080: 3ad6 7fac 0bd7 17ff 0004 e68f cd02 7f46
11 18 -4 20 127 20 3 21
0 -11 -17 -4 -12 -99 -3 -22
127 3 29 127 23 35 -9 -7
-103 -101 2 4 23 10 17 39
11 9 -1 -127 10 -35 24 79
-127 42 16 -39 23 -63 -17 90
-127 13 80 -3 7 26 15 6
0 -4 7 -3 -127 -3 16 39
9 -34 76 -24 -127 71 23 -27
-5 -28 -22 25 50 127 -19 -37
-63 -67 127 -61 -3 27 -26 1
-1 0 40 32 -75 -105 -17 127
64 -35 -32 -26 -127 -79 44 102
78 -1 0 3 -2 -13 -32 14
127 76 -15 65 49 -17 11 -28
33 127 19 54 57 0 32 -88
58 -42 127 -84 11 -41 23 -1
0 4 -26 -113 -51 2 127 70

model/basenet.1.1_bn/FusedBatchNormV3;model/basenet.1.0_dconv/depthwise i1 [1, 3, 3, 16]
00000000: 06ec ff9c f7f6 0bfb 0efb f901 06e7 fd02
00000010: 8228 0b7f feff a300 e9f9 f305 2ff5 fd03
00000020: 0fee 0208 fc00 dd0b 07fc f901 fe0d fd02
00000030: 0b0c fe6d 00c1 2d11 a1fd f103 0199 fbff
00000040: ed7f 7bdb 7f7f a681 817f 7f81 33d8 7f81
00000050: ed05 00df f8f5 8104 f3fe ed00 097f fcfd
00000060: f9fa ff05 f8f3 0c01 f8fd fa01 0719 fa02
00000070: 7f37 81d9 0103 fb12 d95a f306 8102 fa04
00000080: 05f4 fff9 f8fd 1501 08f6 fa03 0308 fa02
6 -20 -1 -100 -9 -10 11 -5
14 -5 -7 1 6 -25 -3 2
-126 40 11 127 -2 -1 -93 0
-23 -7 -13 5 47 -11 -3 3
15 -18 2 8 -4 0 -35 11
7 -4 -7 1 -2 13 -3 2
11 12 -2 109 0 -63 45 17
-95 -3 -15 3 1 -103 -5 -1
-19 127 123 -37 127 127 -90 -127
-127 127 127 -127 51 -40 127 -127
-19 5 0 -33 -8 -11 -127 4
-13 -2 -19 0 9 127 -4 -3
-7 -6 -1 5 -8 -13 12 1
-8 -3 -6 1 7 25 -6 2
127 55 -127 -39 1 3 -5 18
-39 90 -13 6 -127 2 -6 4
5 -12 -1 -7 -8 -3 21 1
8 -10 -6 3 3 8 -6 2

model/basenet.1.3_conv/Conv2D i1 [32, 1, 1, 16]
00000000: 3312 2cff a681 e9f6 feb6 f4dc 3ff4 c3d5
00000010: f200 f0f1 ebea 0e01 7fdb f261 f7f2 d5ba
00000020: 413d 1cfd 1a0f 81f1 a31b 2912 621e 3ee2
00000030: 421f 021b 3137 81ef e931 1415 435b 32fa
00000040: ffe4 2217 e014 1e7f 1dc7 f525 1f5d d760
00000050: 1014 f214 a981 2093 feba ae37 f996 c478
00000060: 2609 f415 0e11 81e6 1400 0c0a e912 0a0f
00000070: 0b04 ff18 e0db 16fd f8f2 d781 0903 dc0e
00000080: 81e9 e610 eae7 0fef 06e1 db16 f2c8 e01e
00000090: ebea 0420 07d0 05b1 f801 e325 3bd1 f47f
000000a0: b10c 3411 17fe 8108 cf0e 2d01 130a 23cb
000000b0: 190e 16ee 81a9 463b 67b4 73cf 0de4 2440
000000c0: 811f dd09 d3ee ff29 0cc6 de3e 0903 d753
000000d0: 02d5 d4f3 bac6 3027 7faa c7e7 95ea a71d
000000e0: 0d0a fcf3 81d7 0523 f29c a70a 00f8 a7f0
000000f0: 14ed e298 c402 147f 22d6 efaa ee2d d7de
51 18 44 -1 -90 -127 -23 -10
-2 -74 -12 -36 63 -12 -61 -43
-14 0 -16 -15 -21 -22 14 1
127 -37 -14 97 -9 -14 -43 -70
65 61 28 -3 26 15 -127 -15
-93 27 41 18 98 30 62 -30
66 31 2 27 49 55 -127 -17
-23 49 20 21 67 91 50 -6
-1 -28 34 23 -32 20 30 127
29 -57 -11 37 31 93 -41 96
16 20 -14 20 -87 -127 32 -109
-2 -70 -82 55 -7 -106 -60 120
38 9 -12 21 14 17 -127 -26
20 0 12 10 -23 18 10 15
11 4 -1 24 -32 -37 22 -3
-8 -14 -41 -127 9 3 -36 14
-127 -23 -26 16 -22 -25 15 -17
6 -31 -37 22 -14 -56 -32 30
-21 -22 4 32 7 -48 5 -79
-8 1 -29 37 59 -47 -12 127
-79 12 52 17 23 -2 -127 8
-49 14 45 1 19 10 35 -53
25 14 22 -18 -127 -87 70 59
103 -76 115 -49 13 -28 36 64
-127 31 -35 9 -45 -18 -1 41
12 -58 -34 62 9 3 -41 83
2 -43 -44 -13 -70 -58 48 39
127 -86 -57 -25 -107 -22 -89 29
13 10 -4 -13 -127 -41 5 35
-14 -100 -89 10 0 -8 -89 -16
20 -19 -30 -104 -60 2 20 127
34 -42 -17 -86 -18 45 -41 -34

model/basenet.2.1_bn/FusedBatchNormV3;model/basenet.2.0_dconv/depthwise;model/basenet.4.0_dconv/depthwise i1 [1, 3, 3, 32]
00000000: 2a1d 92df cc1f 5bf2 a3c6 13e9 d7ba d630
00000010: bf3b bdd1 ceb3 5337 d80c 2508 ebbb 2a19
00000020: 3039 8181 b541 65d7 81b8 2697 b99a bf46
00000030: 913e 81b2 c1f8 65b9 b3ca 3df8 cc29 2a4f
00000040: 262e eb06 dd1b 35d8 f3e4 0bad d4ba da2c
00000050: d217 e0cc cf1a 3817 c5d9 2308 c27f ab42
00000060: 2f47 b345 ac5a 52b2 8ab5 41ca aafb b259
00000070: 9649 deab d281 a957 c5c2 4b43 cfda 3659
00000080: 797f 1d8f 817f 7f81 2a81 7e81 811e 817f
00000090: 817f 9681 3115 8181 8181 7f7f 8187 4d7f
000000a0: 797f 2bb7 bb2d 49ad 6dd3 5ba5 beea b04f
000000b0: c43e d6ab 7b22 9a38 90a2 4766 845e 816b
000000c0: 2b2c 1e64 c44f 17c8 31f5 33ee c452 d43c
000000d0: cf1d 0cd0 e7bd 1434 edb7 35b5 d149 233a
000000e0: 7f4c 503c be4a 479e 62ae 7fd3 b87f ba59
000000f0: ba48 0ea6 6623 22aa d4aa 538d a3bb 3941
42 29 -110 -33 -52 31 91 -14
-93 -58 19 -23 -41 -70 -42 48
-65 59 -67 -47 -50 -77 83 55
-40 12 37 8 -21 -69 42 25
48 57 -127 -127 -75 65 101 -41
-127 -72 38 -105 -71 -102 -65 70
-111 62 -127 -78 -63 -8 101 -71
-77 -54 61 -8 -52 41 42 79
38 46 -21 6 -35 27 53 -40
-13 -28 11 -83 -44 -70 -38 44
-46 23 -32 -52 -49 26 56 23
-59 -39 35 8 -62 127 -85 66
47 71 -77 69 -84 90 82 -78
-118 -75 65 -54 -86 -5 -78 89
-106 73 -34 -85 -46 -127 -87 87
-59 -62 75 67 -49 -38 54 89
121 127 29 -113 -127 127 127 -127
42 -127 126 -127 -127 30 -127 127
-127 127 -106 -127 49 21 -127 -127
-127 -127 127 127 -127 -121 77 127
121 127 43 -73 -69 45 73 -83
109 -45 91 -91 -66 -22 -80 79
-60 62 -42 -85 123 34 -102 56
-112 -94 71 102 -124 94 -127 107
43 44 30 100 -60 79 23 -56
49 -11 51 -18 -60 82 -44 60
-49 29 12 -48 -25 -67 20 52
-19 -73 53 -75 -47 73 35 58
127 76 80 60 -66 74 71 -98
98 -82 127 -45 -72 127 -70 89
-70 72 14 -90 102 35 34 -86
-44 -86 83 -115 -93 -69 57 65

model/basenet.2.3_conv/Conv2D i1 [32, 1, 1, 32]
00000000: fcfc 4aa3 7f37 ee5d 4aa1 ddfe 1b04 f46a
00000010: 6d97 e225 ee41 1221 a728 6416 11cc 031b
00000020: d71e ecd0 30d9 c6e2 dc1d b9ff 4981 7609
00000030: 1101 2412 f4d7 efd7 e39f c1f5 0fbc a900
00000040: fdc2 e603 fdea d505 2811 491f 5612 1613
00000050: af01 baeb 7fd2 0ded 2bfb 0621 fcec f30b
00000060: cdfb 05bb e490 c617 cae3 02e4 ebfd f47f
00000070: 3d93 e1a7 30de f0e7 fb02 22ec 1ccd 3302
00000080: cf3a 2e31 1d17 13f1 f1a4 2bf8 e133 fe16
00000090: 2b1c d506 d57f 1652 dc08 0975 2b1d 530a
000000a0: 011c f613 ecf7 bae1 14f3 cbdf 05d2 7f12
000000b0: e623 000e 3a21 19e1 d9c6 0c0f 09f0 de23
000000c0: 4d4c eaea 00e8 1dae fc0d 2acb b638 d503
000000d0: e6d5 0210 04c5 29a2 b207 f91d 7fe7 ad29
000000e0: ddef e23e 81be e2d4 f153 cdb0 c009 248c
000000f0: a236 08dc d7ce cee1 6811 90da 4548 f730
-4 -4 74 -93 127 55 -18 93
74 -95 -35 -2 27 4 -12 106
109 -105 -30 37 -18 65 18 33
-89 40 100 22 17 -52 3 27
-41 30 -20 -48 48 -39 -58 -30
-36 29 -71 -1 73 -127 118 9
17 1 36 18 -12 -41 -17 -41
-29 -97 -63 -11 15 -68 -87 0
-3 -62 -26 3 -3 -22 -43 5
40 17 73 31 86 18 22 19
-81 1 -70 -21 127 -46 13 -19
43 -5 6 33 -4 -20 -13 11
-51 -5 5 -69 -28 -112 -58 23
-54 -29 2 -28 -21 -3 -12 127
61 -109 -31 -89 48 -34 -16 -25
-5 2 34 -20 28 -51 51 2
-49 58 46 49 29 23 19 -15
-15 -92 43 -8 -31 51 -2 22
43 28 -43 6 -43 127 22 82
-36 8 9 117 43 29 83 10
1 28 -10 19 -20 -9 -70 -31
20 -13 -53 -33 5 -46 127 18
-26 35 0 14 58 33 25 -31
-39 -58 12 15 9 -16 -34 35
77 76 -22 -22 0 -24 29 -82
-4 13 42 -53 -74 56 -43 3
-26 -43 2 16 4 -59 41 -94
-78 7 -7 29 127 -25 -83 41
-35 -17 -30 62 -127 -66 -30 -44
-15 83 -51 -80 -64 9 36 -116
-94 54 8 -36 -41 -50 -50 -31
104 17 -112 -38 69 72 -9 48

model/basenet.3.1_bn/FusedBatchNormV3;model/basenet.3.0_dconv/depthwise;model/basenet.4.0_dconv/depthwise i1 [1, 3, 3, 32]
00000000: b2c6 f5fe 05f5 f41b f1fa 04fc 0501 f949
00000010: f3db eece 3604 27e6 f105 0a12 fe04 f60d
00000020: cd72 031f df00 2300 7f7a 8120 e3b4 a7d6
00000030: d7e7 6b2d 265c 49f8 f3f4 defb 132c 1586
00000040: 5efc f8e5 e721 f6b7 2a0c bd06 0aef e1fa
00000050: de15 321e d8e7 1b43 1ef6 1105 e6f5 23fc
00000060: 1e41 d9ee 94ee ca13 f5e3 0c21 1ce2 c14f
00000070: e981 271b 7f88 f2e2 d3df e7f7 0210 bb81
00000080: 1a30 b176 a8c4 6b7f 0f81 bd69 8181 be7f
00000090: c329 7f7a a87f be7f 817f df81 7f7f 9aa8
000000a0: 432a d47f 137f d613 2cb7 c7ca 62cc 81a7
000000b0: da29 a981 9722 21e2 f8d2 df04 e0f6 e69c
000000c0: 5c14 2def a312 ddf6 210d ca3a 3901 09a0
000000d0: 30d9 095e 458d e11b 12e3 11fa daf0 090d
000000e0: 7f7f 7fef d6b2 7f3b 34f9 c947 a0bd 561a
000000f0: 7f3c 3193 d38e 81c5 b238 7f90 0a61 81dc
-78 -58 -11 -2 5 -11 -12 27
-15 -6 4 -4 5 1 -7 73
-13 -37 -18 -50 54 4 39 -26
-15 5 10 18 -2 4 -10 13
-51 114 3 31 -33 0 35 0
127 122 -127 32 -29 -76 -89 -42
-41 -25 107 45 38 92 73 -8
-13 -12 -34 -5 19 44 21 -122
94 -4 -8 -27 -25 33 -10 -73
42 12 -67 6 10 -17 -31 -6
-34 21 50 30 -40 -25 27 67
30 -10 17 5 -26 -11 35 -4
30 65 -39 -18 -108 -18 -54 19
-11 -29 12 33 28 -30 -63 79
-23 -127 39 27 127 -120 -14 -30
-45 -33 -25 -9 2 16 -69 -127
26 48 -79 118 -88 -60 107 127
15 -127 -67 105 -127 -127 -66 127
-61 41 127 122 -88 127 -66 127
-127 127 -33 -127 127 127 -102 -88
67 42 -44 127 19 127 -42 19
44 -73 -57 -54 98 -52 -127 -89
-38 41 -87 -127 -105 34 33 -30
-8 -46 -33 4 -32 -10 -26 -100
92 20 45 -17 -93 18 -35 -10
33 13 -54 58 57 1 9 -96
48 -39 9 94 69 -115 -31 27
18 -29 17 -6 -38 -16 9 13
127 127 127 -17 -42 -78 127 59
52 -7 -55 71 -96 -67 86 26
127 60 49 -109 -45 -114 -127 -59
-78 56 127 -112 10 97 -127 -36

model/basenet.3.3_conv/Conv2D i1 [32, 1, 1, 32]
00000000: f51c c93d 090c 0f04 f210 f510 0d0a d206
00000010: 81f8 1ade 4d0a 01e2 f9c1 c918 08eb ef08
00000020: 470a 2ee8 11f2 8145 02e9 3444 3ee7 e9ec
00000030: 2bf3 1d08 300e f1fc 19ca cce7 3fe4 2318
00000040: fcec 021c 19ff f77f 0a08 e408 ede0 d8fd
00000050: 070d 1811 1c25 11f1 120c d907 f4ee e1f8
00000060: d52d 185b 1402 dec0 7cc8 e5f0 1969 c617
00000070: 1cf3 fd3a 07ff dafd 35e5 13ea 33e2 7fc7
00000080: b7f9 3f39 2fec 4800 20f9 bb1b cae5 f510
00000090: 7801 0904 eb14 b9f6 e6f1 7f3f e1d2 10e3
000000a0: 05fc 12fc 3d63 cc0c d50d 062b 04ee d97f
000000b0: 21fd f4e2 fc4f def6 1c22 091f d7c0 1606
000000c0: 7fe6 f8d8 f902 eac1 04fa c81d fad8 f7e7
000000d0: 0908 043c 02d8 f825 8c10 dd78 fcf8 ddf3
000000e0: 1707 f60b 45e6 2a13 457f d01b d005 2424
000000f0: 24dd f91c e531 2c1e 1d99 0f11 1746 b7c9
-11 28 -55 61 9 12 15 4
-14 16 -11 16 13 10 -46 6
-127 -8 26 -34 77 10 1 -30
-7 -63 -55 24 8 -21 -17 8
71 10 46 -24 17 -14 -127 69
2 -23 52 68 62 -25 -23 -20
43 -13 29 8 48 14 -15 -4
25 -54 -52 -25 63 -28 35 24
-4 -20 2 28 25 -1 -9 127
10 8 -28 8 -19 -32 -40 -3
7 13 24 17 28 37 17 -15
18 12 -39 7 -12 -18 -31 -8
-43 45 24 91 20 2 -34 -64
124 -56 -27 -16 25 105 -58 23
28 -13 -3 58 7 -1 -38 -3
53 -27 19 -22 51 -30 127 -57
-73 -7 63 57 47 -20 72 0
32 -7 -69 27 -54 -27 -11 16
120 1 9 4 -21 20 -71 -10
-26 -15 127 63 -31 -46 16 -29
5 -4 18 -4 61 99 -52 12
-43 13 6 43 4 -18 -39 127
33 -3 -12 -30 -4 79 -34 -10
28 34 9 31 -41 -64 22 6
127 -26 -8 -40 -7 2 -22 -63
4 -6 -56 29 -6 -40 -9 -25
9 8 4 60 2 -40 -8 37
-116 16 -35 120 -4 -8 -35 -13
23 7 -10 11 69 -26 42 19
69 127 -48 27 -48 5 36 36
36 -35 -7 28 -27 49 44 30
29 -103 15 17 23 70 -73 -55

model/basenet.4.1_bn/FusedBatchNormV3;model/basenet.4.0_dconv/depthwise i1 [1, 3, 3, 32]
00000000: 1d1c e0b4 3f42 69ff eb4a 06f6 cf2c d5fa
00000010: 1cbf 4d18 da25 e512 dbf2 e1e5 1d2b 131c
00000020: 674b bd9c 444b 4e03 e469 d9ea d27f b4fe
00000030: 46af 1abb c93d 2e39 0c96 cade 2b07 2243
00000040: 623b a5ea 0817 29ff f332 c5f6 ee6c eb0c
00000050: 36d6 d7c3 5e1e f21a 1f81 f808 11d7 132b
00000060: 253c c1f4 6a46 4715 1469 51c3 bbea b9ea
00000070: 5aaf 7fc1 812b 8d53 042d c6ae 4b43 2d47
00000080: 7f7f 8114 7f7f 7f3f 377f 4d86 816b 817d
00000090: 7f81 f881 b57f 187f 7fe4 8181 73cc 7f7f
000000a0: 7239 ab10 3549 4449 3e15 029c a674 bbab
000000b0: 32c8 bcae 7b53 4b4f 46c7 c7b8 1c81 5357
000000c0: 1e2b de22 3a1e 2bf1 313e 6fbb c6d9 06ee
000000d0: 42df 5dcc da1b a142 3407 b7ae 2d10 2e25
000000e0: 3041 9f7f 4954 669e 7f26 7f81 86d1 dd66
000000f0: 35a6 adba 003a fa52 5040 a892 7fe4 685f
29 28 -32 -76 63 66 105 -1
-21 74 6 -10 -49 44 -43 -6
28 -65 77 24 -38 37 -27 18
-37 -14 -31 -27 29 43 19 28
103 75 -67 -100 68 75 78 3
-28 105 -39 -22 -46 127 -76 -2
70 -81 26 -69 -55 61 46 57
12 -106 -54 -34 43 7 34 67
98 59 -91 -22 8 23 41 -1
-13 50 -59 -10 -18 108 -21 12
54 -42 -41 -61 94 30 -14 26
31 -127 -8 8 17 -41 19 43
37 60 -63 -12 106 70 71 21
20 105 81 -61 -69 -22 -71 -22
90 -81 127 -63 -127 43 -115 83
4 45 -58 -82 75 67 45 71
127 127 -127 20 127 127 127 63
55 127 77 -122 -127 107 -127 125
127 -127 -8 -127 -75 127 24 127
127 -28 -127 -127 115 -52 127 127
114 57 -85 16 53 73 68 73
62 21 2 -100 -90 116 -69 -85
50 -56 -68 -82 123 83 75 79
70 -57 -57 -72 28 -127 83 87
30 43 -34 34 58 30 43 -15
49 62 111 -69 -58 -39 6 -18
66 -33 93 -52 -38 27 -95 66
52 7 -73 -82 45 16 46 37
48 65 -97 127 73 84 102 -98
127 38 127 -127 -122 -47 -35 102
53 -90 -83 -70 0 58 -6 82
80 64 -88 -110 127 -28 104 95

model/basenet.4.3_conv/Conv2D i1 [64, 1, 1, 32]
00000000: 4d50 37fa 4deb c1f2 e5ae 4cdb d3f2 0c10
00000010: 6c4e 585b 0b11 29e1 eb05 7fb0 c72e ec26
00000020: 7f2c ef0e fbf6 3021 fe22 0de1 86f8 9def
00000030: f211 3d42 323d 13cc 0ed1 e925 c6fb d0c5
00000040: 0f22 1aec cc31 1117 2039 f49f f8bf b828
00000050: fd9c b20a d57f a2d0 13ef 41b6 52f9 2a01
00000060: 2606 2f35 11fe e736 1ed4 99e9 81fd 1f54
00000070: 2ee0 8124 6264 cacf d603 f9c1 2c47 23f8
00000080: c4ff 1621 032b d5ee 141e f6f3 b111 a1e8
00000090: e9ab dbd7 8125 35f5 fe05 f2cd ca44 e70a
000000a0: 4fec 2d37 2ee2 cfcb e23e d4df 2a49 26f9
000000b0: faf3 a563 1b09 7144 2f7f 24e2 d6f4 4042
000000c0: 0670 26c6 49ed bfda 1309 9790 eae3 c113
000000d0: 10cc ede9 e7fc 0106 c98d ef81 b662 4c40
000000e0: ff11 f209 1a22 27c9 dd0b dde7 8d7f 3d05
000000f0: 0bf3 d5e5 0700 28bd da4e d6db f82b 1c66
77 80 55 -6 77 -21 -63 -14
-27 -82 76 -37 -45 -14 12 16
108 78 88 91 11 17 41 -31
-21 5 127 -80 -57 46 -20 38
127 44 -17 14 -5 -10 48 33
-2 34 13 -31 -122 -8 -99 -17
-14 17 61 66 50 61 19 -52
14 -47 -23 37 -58 -5 -48 -59
15 34 26 -20 -52 49 17 23
32 57 -12 -97 -8 -65 -72 40
-3 -100 -78 10 -43 127 -94 -48
19 -17 65 -74 82 -7 42 1
38 6 47 53 17 -2 -25 54
30 -44 -103 -23 -127 -3 31 84
46 -32 -127 36 98 100 -54 -49
-42 3 -7 -63 44 71 35 -8
-60 -1 22 33 3 43 -43 -18
20 30 -10 -13 -79 17 -95 -24
-23 -85 -37 -41 -127 37 53 -11
-2 5 -14 -51 -54 68 -25 10
79 -20 45 55 46 -30 -49 -53
-30 62 -44 -33 42 73 38 -7
-6 -13 -91 99 27 9 113 68
47 127 36 -30 -42 -12 64 66
6 112 38 -58 73 -19 -65 -38
19 9 -105 -112 -22 -29 -63 19
16 -52 -19 -23 -25 -4 1 6
-55 -115 -17 -127 -74 98 76 64
-1 17 -14 9 26 34 39 -55
-35 11 -35 -25 -115 127 61 5
11 -13 -43 -27 7 0 40 -67
-38 78 -42 -37 -8 43 28 102

model/basenet.5.1_bn/FusedBatchNormV3;model/basenet.5.0_dconv/depthwise;model/yaw_0_sep_dconvbias/depthwise i1 [1, 3, 3, 64]
00000000: 017f 08ef f82e ed6b 2925 d53d 050c 00fa
00000010: 17ff eae4 4146 81a9 eacb b204 9d30 507f
00000020: fbf8 09d7 f4f0 fbaf 7fc6 0120 e0f3 fe09
00000030: 1d09 f20e d30d efb4 7feb f61d fced f153
00000040: 39e6 d5d7 f281 fa7f e17f ffcb bdeb d90c
00000050: 2c08 e37f 73e6 c914 7ff1 0308 3e18 2318
00000060: ec3f 11c5 dddb f381 c48e fae6 9c16 08dc
00000070: 46aa e5e9 f801 d5ba 26df c6cd ef4d d1f6
00000080: f219 d3f8 f10f f946 0cf7 eadc 03ee 0ffd
00000090: 13f4 0407 7ff3 ba27 3224 8ef1 ff14 b3ea
000000a0: 0e13 81d7 1905 1a17 b2d7 d30b b403 f33b
000000b0: fae4 d700 fdf1 1b9b 4f7f 2613 fc72 1aa7
000000c0: dedd 7ff9 ea78 f517 7fe8 0736 d406 1af6
000000d0: 5f23 5501 cc32 c8e9 e337 e323 c624 7f5e
000000e0: fff4 2045 dee3 5ef3 69cf d218 20e5 ef57
000000f0: cec3 f4fe cfdc 05eb 1408 056a 08d0 f0ce
1 127 8 -17 -8 46 -19 107
41 37 -43 61 5 12 0 -6
23 -1 -22 -28 65 70 -127 -87
-22 -53 -78 4 -99 48 80 127
-5 -8 9 -41 -12 -16 -5 -81
127 -58 1 32 -32 -13 -2 9
29 9 -14 14 -45 13 -17 -76
127 -21 -10 29 -4 -19 -15 83
57 -26 -43 -41 -14 -127 -6 127
-31 127 -1 -53 -67 -21 -39 12
44 8 -29 127 115 -26 -55 20
127 -15 3 8 62 24 35 24
-20 63 17 -59 -35 -37 -13 -127
-60 -114 -6 -26 -100 22 8 -36
70 -86 -27 -23 -8 1 -43 -70
38 -33 -58 -51 -17 77 -47 -10
-14 25 -45 -8 -15 15 -7 70
12 -9 -22 -36 3 -18 15 -3
19 -12 4 7 127 -13 -70 39
50 36 -114 -15 -1 20 -77 -22
14 19 -127 -41 25 5 26 23
-78 -41 -45 11 -76 3 -13 59
-6 -28 -41 0 -3 -15 27 -101
79 127 38 19 -4 114 26 -89
-34 -35 127 -7 -22 120 -11 23
127 -24 7 54 -44 6 26 -10
95 35 85 1 -52 50 -56 -23
-29 55 -29 35 -58 36 127 94
-1 -12 32 69 -34 -29 94 -13
105 -49 -46 24 32 -27 -17 87
-50 -61 -12 -2 -49 -36 5 -21
20 8 5 106 8 -48 -16 -50

model/basenet.5.3_conv/Conv2D i1 [64, 1, 1, 64]
00000000: baf3 200b 0ded f4d2 b7b4 d23a d6eb 1cc0
00000010: 9208 5a64 e608 33d4 57e9 c428 dc1c ea30
00000020: 0dee d37f d1d2 d84c 21fa 1c24 cdee 2c40
00000030: 1f00 0fe7 f91a 35ee baf9 35f4 e933 b4f8
00000040: 3819 1e12 f8be 162f bd02 3004 01c8 f436
00000050: 7f2f e2df f2fc f80e 87f1 060f 265b ac14
00000060: cb00 27c1 d511 ccc7 f40b da00 1d18 16ed
00000070: bcf2 d991 1cd1 20d2 2f39 c015 0f11 44c2
00000080: 04d6 0bef 02d7 dffc 0213 1a18 ce03 26e9
00000090: 05c5 1aeb 34e1 1902 2bde 1334 0b09 3eb8
000000a0: 2c46 0109 c4eb fc0d 7fec f827 08fd 17f3
000000b0: d709 dbfc f312 ecf9 fa0b 15ca dd20 fa73
000000c0: bdfa 3bf3 eb30 15fd f744 cf10 d9e0 47bb
000000d0: 810d f4e7 c2fe ec3b 12f5 5a34 d304 e3dd
000000e0: 0012 efd8 d414 c1ba af10 fff2 b111 1210
000000f0: 191d 50dd ef16 c4e7 2bca 3749 55fb 1840
-70 -13 32 11 13 -19 -12 -46
-73 -76 -46 58 -42 -21 28 -64
-110 8 90 100 -26 8 51 -44
87 -23 -60 40 -36 28 -22 48
13 -18 -45 127 -47 -46 -40 76
33 -6 28 36 -51 -18 44 64
31 0 15 -25 -7 26 53 -18
-70 -7 53 -12 -23 51 -76 -8
56 25 30 18 -8 -66 22 47
-67 2 48 4 1 -56 -12 54
127 47 -30 -33 -14 -4 -8 14
-121 -15 6 15 38 91 -84 20
-53 0 39 -63 -43 17 -52 -57
-12 11 -38 0 29 24 22 -19
-68 -14 -39 -111 28 -47 32 -46
47 57 -64 21 15 17 68 -62
4 -42 11 -17 2 -41 -33 -4
2 19 26 24 -50 3 38 -23
5 -59 26 -21 52 -31 25 2
43 -34 19 52 11 9 62 -72
44 70 1 9 -60 -21 -4 13
127 -20 -8 39 8 -3 23 -13
-41 9 -37 -4 -13 18 -20 -7
-6 11 21 -54 -35 32 -6 115
-67 -6 59 -13 -21 48 21 -3
-9 68 -49 16 -39 -32 71 -69
-127 13 -12 -25 -62 -2 -20 59
18 -11 90 52 -45 4 -29 -35
0 18 -17 -40 -44 20 -63 -70
-81 16 -1 -14 -79 17 18 16
25 29 80 -35 -17 22 -60 -25
43 -54 55 73 85 -5 24 64

model/basenet.6.1_bn/FusedBatchNormV3;model/basenet.6.0_dconv/depthwise;model/yaw_0_sep_dconvbias/depthwise i1 [1, 3, 3, 64]
00000000: f408 3f08 26fe 1adf 06a8 eaea 0ded 5bfe
00000010: 3fe6 f260 b7ea a1f5 090b 8199 dded e2fa
00000020: 4ff4 11d1 6c67 f3ff 76df 16f2 4fe0 1cb3
00000030: 683d 3149 cfd7 fc20 f47f 7ffd 57f6 ad23
00000040: a1eb 7fcd faec 2192 f9dd 7f14 348c d10a
00000050: 5f44 7fe4 eed3 e3e5 64f5 f196 0be9 f03d
00000060: d00c 1709 7f1b f4fc b9af 7feb 59d3 e1b9
00000070: 5a60 8f7f 4a7f fa43 0c02 24f7 7f16 a2e0
00000080: 7f05 42ce 1bfd 17ed e881 f655 0b91 de1b
00000090: 2b10 dcfe 7b59 bcf6 7fdb 34a3 0104 7ff4
000000a0: e7fb fbdc d9c1 21fb 1406 1eed 48d9 56e0
000000b0: 7f49 aa51 e64f 093d 0e37 cd04 607f e241
000000c0: 28cc 5ee4 7fe6 ebf8 1d03 feb8 04cd 6814
000000d0: 7ffd 7c12 a8c4 813f f381 9993 f9e8 fce5
000000e0: 7fef 0ff2 3b1f e30c 7f04 1a7f 62fa 00a1
000000f0: 087f 6309 23d3 f4b2 545d 6b02 2607 4afe
-12 8 63 8 38 -2 26 -33
6 -88 -22 -22 13 -19 91 -2
63 -26 -14 96 -73 -22 -95 -11
9 11 -127 -103 -35 -19 -30 -6
79 -12 17 -47 108 103 -13 -1
118 -33 22 -14 79 -32 28 -77
104 61 49 73 -49 -41 -4 32
-12 127 127 -3 87 -10 -83 35
-95 -21 127 -51 -6 -20 33 -110
-7 -35 127 20 52 -116 -47 10
95 68 127 -28 -18 -45 -29 -27
100 -11 -15 -106 11 -23 -16 61
-48 12 23 9 127 27 -12 -4
-71 -81 127 -21 89 -45 -31 -71
90 96 -113 127 74 127 -6 67
12 2 36 -9 127 22 -94 -32
127 5 66 -50 27 -3 23 -19
-24 -127 -10 85 11 -111 -34 27
43 16 -36 -2 123 89 -68 -10
127 -37 52 -93 1 4 127 -12
-25 -5 -5 -36 -39 -63 33 -5
20 6 30 -19 72 -39 86 -32
127 73 -86 81 -26 79 9 61
14 55 -51 4 96 127 -30 65
40 -52 94 -28 127 -26 -21 -8
29 3 -2 -72 4 -51 104 20
127 -3 124 18 -88 -60 -127 63
-13 -127 -103 -109 -7 -24 -4 -27
127 -17 15 -14 59 31 -29 12
127 4 26 127 98 -6 0 -95
8 127 99 9 35 -45 -12 -78
84 93 107 2 38 7 74 -2

model/basenet.6.3_conv/Conv2D i1 [64, 1, 1, 64]
00000000: fbde dee3 fdeb e807 fafa 0cf9 e036 c300
00000010: 12ff 0203 d32c 04f3 08fa 36ef f1f9 021b
00000020: d8e7 cf08 f416 1ce5 1034 1a02 7ff9 e4e6
00000030: cefe 1f09 cc29 2905 f5f4 1df1 f2fb d8d4
00000040: 3981 edda a6e3 f1af 4820 bcf4 14d8 195d
00000050: 04d9 27ee 093d 222b eeed 2600 b364 d787
00000060: c32c 0d25 fd16 fff3 c51d e21d 3f12 1124
00000070: 01f9 4634 0203 dad6 0834 24ce b9f7 53b6
00000080: 1afa 1df7 fa0f d9fd d2c8 57a4 dbc9 03f6
00000090: e4b3 fee1 dc15 4d2c 05f9 ebf7 40f1 1300
000000a0: f51c cdfd 2beb f5cf 2be1 dc11 fa50 de81
000000b0: cbed e4f1 fe53 d609 17c1 2907 d60d e01f
000000c0: defd ace1 b41f 0528 b7d0 2d28 dcfa f4cd
000000d0: 8f83 c008 f631 2cf4 d9bb 8236 08c4 ea25
000000e0: 0440 20f5 26b4 50e4 f207 b602 0959 06ae
000000f0: e2dd 9d2b 167f ce1d 01c8 bd10 de2e a379
-5 -34 -34 -29 -3 -21 -24 7
-6 -6 12 -7 -32 54 -61 0
18 -1 2 3 -45 44 4 -13
8 -6 54 -17 -15 -7 2 27
-40 -25 -49 8 -12 22 28 -27
16 52 26 2 127 -7 -28 -26
-50 -2 31 9 -52 41 41 5
-11 -12 29 -15 -14 -5 -40 -44
57 -127 -19 -38 -90 -29 -15 -81
72 32 -68 -12 20 -40 25 93
4 -39 39 -18 9 61 34 43
-18 -19 38 0 -77 100 -41 -121
-61 44 13 37 -3 22 -1 -13
-59 29 -30 29 63 18 17 36
1 -7 70 52 2 3 -38 -42
8 52 36 -50 -71 -9 83 -74
26 -6 29 -9 -6 15 -39 -3
-46 -56 87 -92 -37 -55 3 -10
-28 -77 -2 -31 -36 21 77 44
5 -7 -21 -9 64 -15 19 0
-11 28 -51 -3 43 -21 -11 -49
43 -31 -36 17 -6 80 -34 -127
-53 -19 -28 -15 -2 83 -42 9
23 -63 41 7 -42 13 -32 31
-34 -3 -84 -31 -76 31 5 40
-73 -48 45 40 -36 -6 -12 -51
-113 -125 -64 8 -10 49 44 -12
-39 -69 -126 54 8 -60 -22 37
4 64 32 -11 38 -76 80 -28
-14 7 -74 2 9 89 6 -82
-30 -35 -99 43 22 127 -50 29
1 -56 -67 16 -34 46 -93 121

model/basenet.7.1_bn/FusedBatchNormV3;model/basenet.7.0_dconv/depthwise;model/yaw_0_sep_dconvbias/depthwise i1 [1, 3, 3, 64]
00000000: 4bca feee faee 1fea e4ff 4614 2ced 02e7
00000010: 03fd f381 3049 217f 7f67 3f33 3c10 d248
00000020: faec ffe6 1cef 2c4f f402 19e9 0eff fd65
00000030: 48b7 fef6 d13d 18b7 ddfd 3e0f 66e7 01d8
00000040: 7f44 7fd3 ed13 12d4 a3f6 7f04 1046 cc0d
00000050: eecd 0492 0dba a45c 0b29 f77f 160f ea05
00000060: 2ade f1c9 1c0f 487f fced fb89 6110 7f7f
00000070: f4fe 23e3 ca25 fd0a e011 7f1d 52d8 037f
00000080: 6abb 270c 3fb3 fb01 bfe4 f4fc ea21 ed7f
00000090: 0058 e3f4 3ec4 e946 372f e974 18fb 13cb
000000a0: c7d6 13c8 19f8 4528 e503 c3fe 7ff9 f94b
000000b0: 3ab5 f5f9 e747 165e 24da 371b 7f4c 115c
000000c0: 2826 b3df 3598 330a ca0a 5b21 81dc c7ef
000000d0: ee0b 2f9d 1739 6131 f654 7fe7 7f1d f07f
000000e0: e717 d5d1 14fb 2829 0800 35a1 f000 ed03
000000f0: efc0 7f0e d14a 0b0f dfbf f0de 2ee4 f8f0
75 -54 -2 -18 -6 -18 31 -22
-28 -1 70 20 44 -19 2 -25
3 -3 -13 -127 48 73 33 127
127 103 63 51 60 16 -46 72
-6 -20 -1 -26 28 -17 44 79
-12 2 25 -23 14 -1 -3 101
72 -73 -2 -10 -47 61 24 -73
-35 -3 62 15 102 -25 1 -40
127 68 127 -45 -19 19 18 -44
-93 -10 127 4 16 70 -52 13
-18 -51 4 -110 13 -70 -92 92
11 41 -9 127 22 15 -22 5
42 -34 -15 -55 28 15 72 127
-4 -19 -5 -119 97 16 127 127
-12 -2 35 -29 -54 37 -3 10
-32 17 127 29 82 -40 3 127
106 -69 39 12 63 -77 -5 1
-65 -28 -12 -4 -22 33 -19 127
0 88 -29 -12 62 -60 -23 70
55 47 -23 116 24 -5 19 -53
-57 -42 19 -56 25 -8 69 40
-27 3 -61 -2 127 -7 -7 75
58 -75 -11 -7 -25 71 22 94
36 -38 55 27 127 76 17 92
40 38 -77 -33 53 -104 51 10
-54 10 91 33 -127 -36 -57 -17
-18 11 47 -99 23 57 97 49
-10 84 127 -25 127 29 -16 127
-25 23 -43 -47 20 -5 40 41
8 0 53 -95 -16 0 -19 3
-17 -64 127 14 -47 74 11 15
-33 -65 -16 -34 46 -28 -8 -16

model/basenet.7.3_conv/Conv2D i1 [64, 1, 1, 64]
00000000: f814 ea13 c3f4 d8f7 3c18 022a f9f2 c05a
00000010: 46fe c0cc 028b e3c3 e5f4 f1d3 eb58 bc20
00000020: faf3 301b 2ae4 da02 0af3 f320 2930 3ae8
00000030: f120 e5e1 434e ed08 08fe dad2 0781 f427
00000040: ff0b 4ee7 c307 f0e1 ee01 f0fa 0e09 e606
00000050: fee7 fb21 fde6 0905 bfc2 ed14 d0fe d8ea
00000060: 8102 0604 07e5 d00d 24f1 16dd 10f0 ff21
00000070: 0120 0bfc eaca edf4 1382 d4c0 230b f909
00000080: 3ef4 f081 d62e be1a fb4f 0c1e cec5 6a6b
00000090: 3e0a aacc c09c eaa8 2dd8 cbe2 041d 97ef
000000a0: da1c 1504 2dce 0414 d7f6 140c 0652 2fe5
000000b0: ffdf cd0d 33fe 0af0 dcdc ddcd 21bb f1e5
000000c0: f919 e2e9 0110 f5ec dc0f d3f0 0f0b 15e6
000000d0: 9111 c170 f6fe 1fcc e908 29ff f3ea 9e25
000000e0: fbd5 040b 0204 f300 22c5 09e5 c5d6 efcf
000000f0: 07f3 fee4 ab0d e10f 1c0b c881 ecb9 17ff
-8 20 -22 19 -61 -12 -40 -9
60 24 2 42 -7 -14 -64 90
70 -2 -64 -52 2 -117 -29 -61
-27 -12 -15 -45 -21 88 -68 32
-6 -13 48 27 42 -28 -38 2
10 -13 -13 32 41 48 58 -24
-15 32 -27 -31 67 78 -19 8
8 -2 -38 -46 7 -127 -12 39
-1 11 78 -25 -61 7 -16 -31
-18 1 -16 -6 14 9 -26 6
-2 -25 -5 33 -3 -26 9 5
-65 -62 -19 20 -48 -2 -40 -22
-127 2 6 4 7 -27 -48 13
36 -15 22 -35 16 -16 -1 33
1 32 11 -4 -22 -54 -19 -12
19 -126 -44 -64 35 11 -7 9
62 -12 -16 -127 -42 46 -66 26
-5 79 12 30 -50 -59 106 107
62 10 -86 -52 -64 -100 -22 -88
45 -40 -53 -30 4 29 -105 -17
-38 28 21 4 45 -50 4 20
-41 -10 20 12 6 82 47 -27
-1 -33 -51 13 51 -2 10 -16
-36 -36 -35 -51 33 -69 -15 -27
-7 25 -30 -23 1 16 -11 -20
-36 15 -45 -16 15 11 21 -26
-111 17 -63 112 -10 -2 31 -52
-23 8 41 -1 -13 -22 -98 37
-5 -43 4 11 2 4 -13 0
34 -59 9 -27 -59 -42 -17 -49
7 -13 -2 -28 -85 13 -31 15
28 11 -56 -127 -20 -71 23 -1

model/basenet.8.1_bn/FusedBatchNormV3;model/basenet.8.0_dconv/depthwise;model/yaw_0_sep_dconvbias/depthwise i1 [1, 3, 3, 64]
00000000: 8104 03e9 5421 c8eb 4211 6e19 ec04 11cb
00000010: 2e01 fdbe f611 0701 cb7f 695e 0418 225f
00000020: ebe2 6463 781b fd14 e62e 2444 0726 bd81
00000030: 1fb7 8fce c77f cfe1 1006 c668 81c7 1a31
00000040: be07 0d07 7bf5 b663 4c40 33d0 ee7f 3df6
00000050: 4d53 523c f0e5 7f52 e675 527f fc27 817c
00000060: 2a15 1471 7f7f 4148 3b9a 7f76 7f2f 0df2
00000070: adc7 8c0b f150 c3b4 b52f 404c 97a6 7f7b
00000080: eaf0 65e5 1eca e756 211d ecf2 e95b 29e7
00000090: 2354 534d cb3c 4c41 052a 1860 2dcd e536
000000a0: 0d47 fac8 0fa1 6246 6b81 7bc6 5aa0 d410
000000b0: c9e8 cd1c 6f5b 9fa5 811a f27f d481 447f
000000c0: d629 3d81 567f 35c6 7f7f 2aa7 d4db 5181
000000d0: 3e87 62c8 5b5c fd46 b13d 7f34 5c12 2051
000000e0: 95c4 105e 7ed5 f917 1211 7b5f d03f 81a9
000000f0: 45ce 64dd e3d5 d559 e2f7 f154 c912 1316
-127 4 3 -23 84 33 -56 -21
66 17 110 25 -20 4 17 -53
46 1 -3 -66 -10 17 7 1
-53 127 105 94 4 24 34 95
-21 -30 100 99 120 27 -3 20
-26 46 36 68 7 38 -67 -127
31 -73 -113 -50 -57 127 -49 -31
16 6 -58 104 -127 -57 26 49
-66 7 13 7 123 -11 -74 99
76 64 51 -48 -18 127 61 -10
77 83 82 60 -16 -27 127 82
-26 117 82 127 -4 39 -127 124
42 21 20 113 127 127 65 72
59 -102 127 118 127 47 13 -14
-83 -57 -116 11 -15 80 -61 -76
-75 47 64 76 -105 -90 127 123
-22 -16 101 -27 30 -54 -25 86
33 29 -20 -14 -23 91 41 -25
35 84 83 77 -53 60 76 65
5 42 24 96 45 -51 -27 54
13 71 -6 -56 15 -95 98 70
107 -127 123 -58 90 -96 -44 16
-55 -24 -51 28 111 91 -97 -91
-127 26 -14 127 -44 -127 68 127
-42 41 61 -127 86 127 53 -58
127 127 42 -89 -44 -37 81 -127
62 -121 98 -56 91 92 -3 70
-79 61 127 52 92 18 32 81
-107 -60 16 94 126 -43 -7 23
18 17 123 95 -48 63 -127 -87
69 -50 100 -35 -29 -43 -43 89
-30 -9 -15 84 -55 18 19 22

model/basenet.8.3_conv/Conv2D i1 [128, 1, 1, 64]
00000000: c2e8 f936 20dc b12a 17ed d6f7 4705 ea01
00000010: 714d 5ff0 28ed 0d64 f00d df58 c5e9 d103
00000020: 7f00 49e6 f412 2e38 cd11 02d5 38f5 ea15
00000030: 3106 0909 12f7 fc1f 05e2 3ae9 0609 c9e4
00000040: d81c 3034 252e fbbc 06dd fbf9 fbcb 1fde
00000050: edc4 fc0a 13d3 3126 efce 4fb8 18f5 3cd4
00000060: 26d5 f7e9 2c13 4bf6 e91b 13fc 32df ed09
00000070: 022d caec 7ffd 31e0 18eb 63dd 09de c6db
00000080: 0f28 2ac3 fdf1 110c 12f7 fbe9 f902 eded
00000090: 81d8 f25e c513 e1d9 0ce4 3dd0 13bc 172d
000000a0: f1f6 ecfe f625 1f35 22fa c3f8 0b23 2b1a
000000b0: d633 001c e3f1 09ec 3ce3 5910 f52b f50e
000000c0: fd0d 0d14 c4f4 2f4a f40c 1208 ecf6 fa31
000000d0: 0cea 110d 1309 c14c 08ff 500c 211d 162e
000000e0: 1d17 100e 7f01 e628 00fa 060f eceb e701
000000f0: fc15 ffe6 0205 fe90 c114 0324 0c1c 16a5
-62 -24 -7 54 32 -36 -79 42
23 -19 -42 -9 71 5 -22 1
113 77 95 -16 40 -19 13 100
-16 13 -33 88 -59 -23 -47 3
127 0 73 -26 -12 18 46 56
-51 17 2 -43 56 -11 -22 21
49 6 9 9 18 -9 -4 31
5 -30 58 -23 6 9 -55 -28
-40 28 48 52 37 46 -5 -68
6 -35 -5 -7 -5 -53 31 -34
-19 -60 -4 10 19 -45 49 38
-17 -50 79 -72 24 -11 60 -44
38 -43 -9 -23 44 19 75 -10
-23 27 19 -4 50 -33 -19 9
2 45 -54 -20 127 -3 49 -32
24 -21 99 -35 9 -34 -58 -37
15 40 42 -61 -3 -15 17 12
18 -9 -5 -23 -7 2 -19 -19
-127 -40 -14 94 -59 19 -31 -39
12 -28 61 -48 19 -68 23 45
-15 -10 -20 -2 -10 37 31 53
34 -6 -61 -8 11 35 43 26
-42 51 0 28 -29 -15 9 -20
60 -29 89 16 -11 43 -11 14
-3 13 13 20 -60 -12 47 74
-12 12 18 8 -20 -10 -6 49
12 -22 17 13 19 9 -63 76
8 -1 80 12 33 29 22 46
29 23 16 14 127 1 -26 40
0 -6 6 15 -20 -21 -25 1
-4 21 -1 -26 2 5 -2 -112
-63 20 3 36 12 28 22 -91

model/basenet.9.1_bn/FusedBatchNormV3;model/basenet.9.0_dconv/depthwise;model/yaw_1_sep_dconvbias/depthwise i1 [1, 3, 3, 128]
00000000: f2ec c204 f434 2cf5 311b 5fd4 9f5c 4e3f
00000010: c5cc d181 b7d7 2eee 00a3 42f2 df7f 7f19
00000020: f2a3 f4dc 7417 57cb 2921 cc59 12a9 5e44
00000030: c2ea 7fb3 d62c fc48 11cf 371e 0d2c 1dee
00000040: d318 4931 7f1a 0c27 5a96 b8a0 0414 529e
00000050: 0d11 2ee3 007f e881 4930 f76a 45ed b5cc
00000060: 3a4e 21d9 78a3 0be8 fedf 4367 d007 bbfc
00000070: 45d6 9def e568 a8a5 7fb5 6420 1dc0 38fe
00000080: 9df1 abdf 015e 7fcf de2d 317f 415a ee40
00000090: 0dea c9c4 e3fd c8bf dcd4 7d7f ba3b d3e3
000000a0: 0bba 78f4 d836 9fbc cbf0 ec65 9772 7b1e
000000b0: d106 ede6 e272 01ad 25cf db7f c34d c43f
000000c0: c912 047f 21da e832 7fd3 ec37 f109 cdae
000000d0: d1d2 341a c803 87de f2db e33a 7fb3 7f13
000000e0: 7fac eedc de29 c7fd 7f3c e4ca 81c9 8149
000000f0: ae2b 0133 12dc 2408 097f 28ca 7f18 226d
-14 -20 -62 4 -12 52 44 -11
49 27 95 -44 -97 92 78 63
-59 -52 -47 -127 -73 -41 46 -18
0 -93 66 -14 -33 127 127 25
-14 -93 -12 -36 116 23 87 -53
41 33 -52 89 18 -87 94 68
-62 -22 127 -77 -42 44 -4 72
17 -49 55 30 13 44 29 -18
-45 24 73 49 127 26 12 39
90 -106 -72 -96 4 20 82 -98
13 17 46 -29 0 127 -24 -127
73 48 -9 106 69 -19 -75 -52
58 78 33 -39 120 -93 11 -24
-2 -33 67 103 -48 7 -69 -4
69 -42 -99 -17 -27 104 -88 -91
127 -75 100 32 29 -64 56 -2
-99 -15 -85 -33 1 94 127 -49
-34 45 49 127 65 90 -18 64
13 -22 -55 -60 -29 -3 -56 -65
-36 -44 125 127 -70 59 -45 -29
11 -70 120 -12 -40 54 -97 -68
-53 -16 -20 101 -105 114 123 30
-47 6 -19 -26 -30 114 1 -83
37 -49 -37 127 -61 77 -60 63
-55 18 4 127 33 -38 -24 50
127 -45 -20 55 -15 9 -51 -82
-47 -46 52 26 -56 3 -121 -34
-14 -37 -29 58 127 -77 127 19
127 -84 -18 -36 -34 41 -57 -3
127 60 -28 -54 -127 -55 -127 73
-82 43 1 51 18 -36 36 8
9 127 40 -54 127 24 34 109

model/basenet.9.3_conv/Conv2D i1 [128, 1, 1, 128]
00000000: e1a6 2067 df81 d2d7 f705 c8ff e8da 08ff
00000010: f449 0dc8 20f8 111f f0df 2bd1 e3f8 3920
00000020: 1fe3 e2eb 0b10 fdcb 12b6 1d53 e62c 2705
00000030: f14f c045 fe0b 1f01 15e2 d1fc ddb9 1708
00000040: 113f de08 f610 4f15 c719 aa44 d4f9 ff21
00000050: f555 5517 fb2d 0a11 e8d8 9be8 e803 51e6
00000060: fef9 1ee8 effe e5d0 13cd 1ccf 3040 e71f
00000070: 25fa f6dc fbcc 00ec eaea d601 0f1e 37ee
00000080: da1b 25bc d4cc 0c10 3ae9 ec16 1bd4 d4e5
00000090: 013d e208 ebd2 00bb 48fa 0fc8 ea10 f5e7
000000a0: b2b2 d5d5 d1ed e71a 38df 021f dfb3 0cf9
000000b0: d1d7 94ed 2313 3b16 f314 faf9 f5e5 fe07
000000c0: d8f5 1af3 f40b db7f 16e6 c824 d6d0 071d
000000d0: 432f 1228 f010 dc12 e10e f713 dbd7 d017
000000e0: 1f0b 04da d1b8 0609 e20e 31f6 1df7 db1d
000000f0: 24ed 28e4 2d0b dfd0 f7ec d2d9 2110 dc12
-31 -90 32 103 -33 -127 -46 -41
-9 5 -56 -1 -24 -38 8 -1
-12 73 13 -56 32 -8 17 31
-16 -33 43 -47 -29 -8 57 32
31 -29 -30 -21 11 16 -3 -53
18 -74 29 83 -26 44 39 5
-15 79 -64 69 -2 11 31 1
21 -30 -47 -4 -35 -71 23 8
17 63 -34 8 -10 16 79 21
-57 25 -86 68 -44 -7 -1 33
-11 85 85 23 -5 45 10 17
-24 -40 -101 -24 -24 3 81 -26
-2 -7 30 -24 -17 -2 -27 -48
19 -51 28 -49 48 64 -25 31
37 -6 -10 -36 -5 -52 0 -20
-22 -22 -42 1 15 30 55 -18
-38 27 37 -68 -44 -52 12 16
58 -23 -20 22 27 -44 -44 -27
1 61 -30 8 -21 -46 0 -69
72 -6 15 -56 -22 16 -11 -25
-78 -78 -43 -43 -47 -19 -25 26
56 -33 2 31 -33 -77 12 -7
-47 -41 -108 -19 35 19 59 22
-13 20 -6 -7 -11 -27 -2 7
-40 -11 26 -13 -12 11 -37 127
22 -26 -56 36 -42 -48 7 29
67 47 18 40 -16 16 -36 18
-31 14 -9 19 -37 -41 -48 23
31 11 4 -38 -47 -72 6 9
-30 14 49 -10 29 -9 -37 29
36 -19 40 -28 45 11 -33 -48
-9 -20 -46 -39 33 16 -36 18

model/basenet.10.1_bn/FusedBatchNormV3;model/basenet.10.0_dconv/depthwise;model/yaw_1_sep_dconvbias/depthwise i1 [1, 3, 3, 128]
00000000: e17f 85b7 01ce 6b81 2274 ca41 7fee 782e
00000010: 08cf f5f0 890b 7ff9 ce7f 8100 e058 f1e5
00000020: 56a9 e420 e8d3 37df 76b5 ad3c bdd6 7ff9
00000030: c2fe d761 370d 78ad 0106 c9ed c96e 264a
00000040: 7f14 4b99 e42e 2cde 7ffa 6ef0 7917 535e
00000050: 8105 e1d5 197a 687f e158 7fb4 602c ec6c
00000060: ad7f d6f5 30b1 1b9b a106 ba17 f215 dd7f
00000070: 600d e281 6d14 dfc3 fd5d 17ad 7020 0514
00000080: becd 91c2 1df5 8e47 7f3b d8d4 fbf0 7fce
00000090: 3fb8 816f 81f6 3838 d75b a289 126a d40d
000000a0: 4e7c 0355 d1e2 b922 0881 8a7f d3c4 0c84
000000b0: 15cb ff3b 287a 0dbd a922 d2ec 8ef7 7ffe
000000c0: 107f b0d6 1781 c8e1 a133 44e7 d096 6a7b
000000d0: 4ebe ace3 7f2a ca4c c952 ca85 e323 36f4
000000e0: 9fd0 c5d4 3e05 7f8c 8160 0c50 f44e 816a
000000f0: 5054 d116 3000 c859 5e22 47ac 7fa4 9b78
-31 127 -123 -73 1 -50 107 -127
34 116 -54 65 127 -18 120 46
8 -49 -11 -16 -119 11 127 -7
-50 127 -127 0 -32 88 -15 -27
86 -87 -28 32 -24 -45 55 -33
118 -75 -83 60 -67 -42 127 -7
-62 -2 -41 97 55 13 120 -83
1 6 -55 -19 -55 110 38 74
127 20 75 -103 -28 46 44 -34
127 -6 110 -16 121 23 83 94
-127 5 -31 -43 25 122 104 127
-31 88 127 -76 96 44 -20 108
-83 127 -42 -11 48 -79 27 -101
-95 6 -70 23 -14 21 -35 127
96 13 -30 -127 109 20 -33 -61
-3 93 23 -83 112 32 5 20
-66 -51 -111 -62 29 -11 -114 71
127 59 -40 -44 -5 -16 127 -50
63 -72 -127 111 -127 -10 56 56
-41 91 -94 -119 18 106 -44 13
78 124 3 85 -47 -30 -71 34
8 -127 -118 127 -45 -60 12 -124
21 -53 -1 59 40 122 13 -67
-87 34 -46 -20 -114 -9 127 -2
16 127 -80 -42 23 -127 -56 -31
-95 51 68 -25 -48 -106 106 123
78 -66 -84 -29 127 42 -54 76
-55 82 -54 -123 -29 35 54 -12
-97 -48 -59 -44 62 5 127 -116
-127 96 12 80 -12 78 -127 106
80 84 -47 22 48 0 -56 89
94 34 71 -84 127 -92 -101 120

model/basenet.10.3_conv/Conv2D i1 [128, 1, 1, 128]
00000000: 2609 ed18 c8ee 01fb 02d8 0126 280e f7ed
00000010: 0913 f80b f2fa 1deb 1500 fb06 fcea a303
00000020: f925 22f2 eb0b e41a 0b03 50f6 f81d d408
00000030: e52a 09fd e801 f7d7 05dc f602 0523 06cd
00000040: eddf 04c3 0519 fff5 f0f6 08ed df21 d3fc
00000050: fad7 08f8 14dc a6f0 0bfc ef0d f6f8 efda
00000060: 22d4 c8e9 1108 f025 815c ed35 a50e f7f4
00000070: fbfa e511 04ea 07f7 0810 bab4 f3fa cb05
00000080: c2cd fdf0 ccfe f7fc f716 e8f8 f910 f9ee
00000090: e20d e5d8 1506 e111 cc02 2829 c3fb e7fc
000000a0: eaf5 0eed fa05 efce 10fb f308 19f4 0fc1
000000b0: 0d09 e61d eb1a 35e3 c72f f70a d80e fcdf
000000c0: f606 0afa 441a 00fd e806 0402 fc17 22e9
000000d0: 0901 f8cb 1c81 dbfe f4dd f30e e3de abd0
000000e0: 1a0e fb09 ed37 43d1 eda3 eed8 1e1f 060f
000000f0: 1619 fb13 23ef f3fe 19d5 e913 c8fd 0305
38 9 -19 24 -56 -18 1 -5
2 -40 1 38 40 14 -9 -19
9 19 -8 11 -14 -6 29 -21
21 0 -5 6 -4 -22 -93 3
-7 37 34 -14 -21 11 -28 26
11 3 80 -10 -8 29 -44 8
-27 42 9 -3 -24 1 -9 -41
5 -36 -10 2 5 35 6 -51
-19 -33 4 -61 5 25 -1 -11
-16 -10 8 -19 -33 33 -45 -4
-6 -41 8 -8 20 -36 -90 -16
11 -4 -17 13 -10 -8 -17 -38
34 -44 -56 -23 17 8 -16 37
-127 92 -19 53 -91 14 -9 -12
-5 -6 -27 17 4 -22 7 -9
8 16 -70 -76 -13 -6 -53 5
-62 -51 -3 -16 -52 -2 -9 -4
-9 22 -24 -8 -7 16 -7 -18
-30 13 -27 -40 21 6 -31 17
-52 2 40 41 -61 -5 -25 -4
-22 -11 14 -19 -6 5 -17 -50
16 -5 -13 8 25 -12 15 -63
13 9 -26 29 -21 26 53 -29
-57 47 -9 10 -40 14 -4 -33
-10 6 10 -6 68 26 0 -3
-24 6 4 2 -4 23 34 -23
9 1 -8 -53 28 -127 -37 -2
-12 -35 -13 14 -29 -34 -85 -48
26 14 -5 9 -19 55 67 -47
-19 -93 -18 -40 30 31 6 15
22 25 -5 19 35 -17 -13 -2
25 -43 -23 19 -56 -3 3 5

model/basenet.11.1_bn/FusedBatchNormV3;model/basenet.11.0_dconv/depthwise;model/yaw_1_sep_dconvbias/depthwise i1 [1, 3, 3, 128]
00000000: f2d7 1b1c d40d 4f54 3fea 0139 d9ce 7dc8
00000010: 27cd 256c 81de 4423 dcd2 fee5 0415 15d1
00000020: 7f46 d10b 25c6 c3f3 502b 1a20 1902 7f3f
00000030: b111 f054 dd1b 69ac 0ae4 e17f 5e98 e4cf
00000040: 51db bec1 e90d cfd4 c260 1a6b 7fdc 227f
00000050: e032 3e27 f553 097f 09ee 8166 56c4 a8ef
00000060: 40a1 b57f a737 ed28 f0b3 f715 26d2 d6e4
00000070: 217f fe03 1402 7de6 4af7 5305 2be7 da21
00000080: 703a 19f6 7f57 2bea 36a2 027f c572 6424
00000090: 2fbd 6e5c 12f0 073f 7fab 20cc 4bdf bb7f
000000a0: 672e 12bc 7f1f 36ba 7feb c3fd 9111 214f
000000b0: 817f a01a de48 0cfa ef7a 1127 b4e1 faf3
000000c0: afc9 0709 49b2 450f 7f51 1f2f 6aec fd67
000000d0: 3643 3fa7 0276 cfdd 251f e538 11ef 7fdc
000000e0: f2dd e9cf ebc4 01e8 128d fe98 3b62 7de8
000000f0: f775 c7ec 447f 721b 417f 5d00 4e44 beab
-14 -41 27 28 -44 13 79 84
63 -22 1 57 -39 -50 125 -56
39 -51 37 108 -127 -34 68 35
-36 -46 -2 -27 4 21 21 -47
127 70 -47 11 37 -58 -61 -13
80 43 26 32 25 2 127 63
-79 17 -16 84 -35 27 105 -84
10 -28 -31 127 94 -104 -28 -49
81 -37 -66 -63 -23 13 -49 -44
-62 96 26 107 127 -36 34 127
-32 50 62 39 -11 83 9 127
9 -18 -127 102 86 -60 -88 -17
64 -95 -75 127 -89 55 -19 40
-16 -77 -9 21 38 -46 -42 -28
33 127 -2 3 20 2 125 -26
74 -9 83 5 43 -25 -38 33
112 58 25 -10 127 87 43 -22
54 -94 2 127 -59 114 100 36
47 -67 110 92 18 -16 7 63
127 -85 32 -52 75 -33 -69 127
103 46 18 -68 127 31 54 -70
127 -21 -61 -3 -111 17 33 79
-127 127 -96 26 -34 72 12 -6
-17 122 17 39 -76 -31 -6 -13
-81 -55 7 9 73 -78 69 15
127 81 31 47 106 -20 -3 103
54 67 63 -89 2 118 -49 -35
37 31 -27 56 17 -17 127 -36
-14 -35 -23 -49 -21 -60 1 -24
18 -115 -2 -104 59 98 125 -24
-9 117 -57 -20 68 127 114 27
65 127 93 0 78 68 -66 -85

model/basenet.11.3_conv/Conv2D i1 [256, 1, 1, 128]
00000000: 4a8a c618 2152 9e2b 3e05 ea3b 20f1 5612
00000010: f702 03f5 3e5c 403d 1c4f cfb5 fc43 d047
00000020: 09a5 c8bc c3cb d5c8 18cf ce19 6cd5 efa7
00000030: 2fa0 f6b7 0ad2 f813 26fc 5735 5cda 301c
00000040: 4bd1 e547 6122 ec79 c73e c0ff cd45 53dc
00000050: 3c0d 3811 26ee 935c 2db7 33e7 3104 3ed0
00000060: de1e f1df 4ac2 b900 c103 691e d504 4efb
00000070: 3d8b f8db 5f24 2fd1 d0d2 81ef cf20 eaeb
00000080: f212 f353 22f6 0f42 dbef fede e71e e4df
00000090: ed13 0809 cdc6 e6d6 d213 1dca fb27 04ff
000000a0: ecc7 ebe1 fce9 f70c eaf9 11d8 f912 f6f5
000000b0: df06 02ff 083c 1df3 e7e6 fdf8 0111 f2f5
000000c0: 2906 142e 09f7 fd44 05fc ddf3 cc05 f1fe
000000d0: feef ecc8 ef1c 0a7f 19d9 dee1 fcf1 0dda
000000e0: f816 25f6 ea0d e708 f90a e117 0920 dd03
000000f0: e114 d312 eb09 e1fb f409 f50e ea2c e514
74 -118 -58 24 33 82 -98 43
62 5 -22 59 32 -15 86 18
-9 2 3 -11 62 92 64 61
28 79 -49 -75 -4 67 -48 71
9 -91 -56 -68 -61 -53 -43 -56
24 -49 -50 25 108 -43 -17 -89
47 -96 -10 -73 10 -46 -8 19
38 -4 87 53 92 -38 48 28
75 -47 -27 71 97 34 -20 121
-57 62 -64 -1 -51 69 83 -36
60 13 56 17 38 -18 -109 92
45 -73 51 -25 49 4 62 -48
-34 30 -15 -33 74 -62 -71 0
-63 3 105 30 -43 4 78 -5
61 -117 -8 -37 95 36 47 -47
-48 -46 -127 -17 -49 32 -22 -21
-14 18 -13 83 34 -10 15 66
-37 -17 -2 -34 -25 30 -28 -33
-19 19 8 9 -51 -58 -26 -42
-46 19 29 -54 -5 39 4 -1
-20 -57 -21 -31 -4 -23 -9 12
-22 -7 17 -40 -7 18 -10 -11
-33 6 2 -1 8 60 29 -13
-25 -26 -3 -8 1 17 -14 -11
41 6 20 46 9 -9 -3 68
5 -4 -35 -13 -52 5 -15 -2
-2 -17 -20 -56 -17 28 10 127
25 -39 -34 -31 -4 -15 13 -38
-8 22 37 -10 -22 13 -25 8
-7 10 -31 23 9 32 -35 3
-31 20 -45 18 -21 9 -31 -5
-12 9 -11 14 -22 44 -27 20

model/basenet.12.1_bn/FusedBatchNormV3;model/basenet.12.0_dconv/depthwise;model/yaw_2_sep_dconvbias/depthwise i1 [1, 3, 3, 256]
00000000: d87f b104 d346 2665 dee4 e410 06bf cfda
00000010: 81cd 1418 dd8f b6db 0cda a34e 77fb 5f08
00000020: ea1a 45d5 956a dec5 da07 49d7 5f1a cac1
00000030: fce5 067f b363 acec 0cc0 1a16 cef4 3eae
00000040: 81dd 59d4 7f6e 70f5 81c7 181a f22d eee7
00000050: 36c6 d305 c509 58c0 b5ed 3d84 d46f f9e8
00000060: e4d8 b032 815b abe2 a4ce c4cd 083c 3505
00000070: 8681 3348 aeb3 ebfb 7f0c e637 3b64 dc37
00000080: 21da 085a bd5f 7028 b155 de28 0059 d4ed
00000090: 89fd a4d1 fc12 aa93 f1df ed41 c207 a8d0
000000a0: 2ba9 303e 31c6 9fa9 ec26 234a d41d 97f8
000000b0: bf08 c924 400a de21 7f9e b41e 1aac a3db
000000c0: b707 bf7f ef36 83f3 70f2 390e 3507 2ea3
000000d0: 5c0f 0e81 0665 11f3 c1e2 e808 2e7f 317f
000000e0: eddf e2d1 dc7f 7f1b f6ff 73e2 27da 988f
000000f0: a5e0 d86e 4ca4 19d7 ddaf fcfd 9cb8 d928
-40 127 -79 4 -45 70 38 101
-34 -28 -28 16 6 -65 -49 -38
-127 -51 20 24 -35 -113 -74 -37
12 -38 -93 78 119 -5 95 8
-22 26 69 -43 -107 106 -34 -59
-38 7 73 -41 95 26 -54 -63
-4 -27 6 127 -77 99 -84 -20
12 -64 26 22 -50 -12 62 -82
-127 -35 89 -44 127 110 112 -11
-127 -57 24 26 -14 45 -18 -25
54 -58 -45 5 -59 9 88 -64
-75 -19 61 -124 -44 111 -7 -24
-28 -40 -80 50 -127 91 -85 -30
-92 -50 -60 -51 8 60 53 5
-122 -127 51 72 -82 -77 -21 -5
127 12 -26 55 59 100 -36 55
33 -38 8 90 -67 95 112 40
-79 85 -34 40 0 89 -44 -19
-119 -3 -92 -47 -4 18 -86 -109
-15 -33 -19 65 -62 7 -88 -48
43 -87 48 62 49 -58 -97 -87
-20 38 35 74 -44 29 -105 -8
-65 8 -55 36 64 10 -34 33
127 -98 -76 30 26 -84 -93 -37
-73 7 -65 127 -17 54 -125 -13
112 -14 57 14 53 7 46 -93
92 15 14 -127 6 101 17 -13
-63 -30 -24 8 46 127 49 127
-19 -33 -30 -47 -36 127 127 27
-10 -1 115 -30 39 -38 -104 -113
-91 -32 -40 110 76 -92 25 -41
-35 -81 -4 -3 -100 -72 -39 40

model/basenet.12.3_conv/Conv2D i1 [256, 1, 1, 256]
00000000: d404 2491 c72d f819 72d1 e0de d894 0bcc
00000010: 00f2 d0db 34f5 b52c ddbb e6d0 bf3c e413
00000020: 06fc fcd4 ed0e eae7 e9f4 de24 27d8 fb12
00000030: 0ecd d1bb 83f8 38d7 eafd 20f7 1827 c0de
00000040: 0ae6 e81d fbd0 2915 deff 2af9 594c 90df
00000050: 02fe 1205 e1e8 de53 1cdb f931 cf08 e9d1
00000060: c1f0 e90b f213 fd06 abcb 09f2 ffd8 dac7
00000070: ad9f 06df 0117 ed17 f333 0902 e8fd 09d9
00000080: be11 f703 c9e2 8bdc d33e ce0f efe5 e6e5
00000090: c40d 0d81 02b3 2a1a 07c1 f0c5 8d0b dd04
000000a0: 1f1d edc4 0b16 fcd9 fad9 e9f5 e71a d21a
000000b0: fafa 6dcf c88c f1fb f821 e2f1 e40a cef4
000000c0: fdfc f2fd cdf1 3b11 1d77 e83a fedc 23ef
000000d0: 2128 fc09 0a29 e9cd e70a d90e cba6 feb5
000000e0: 9fd3 d14c 0a36 f804 c205 ddd3 ed06 1def
000000f0: e7f1 e01b c2af f0ed 2b01 382a f5e6 19e4
-44 4 36 -111 -57 45 -8 25
114 -47 -32 -34 -40 -108 11 -52
0 -14 -48 -37 52 -11 -75 44
-35 -69 -26 -48 -65 60 -28 19
6 -4 -4 -44 -19 14 -22 -25
-23 -12 -34 36 39 -40 -5 18
14 -51 -47 -69 -125 -8 56 -41
-22 -3 32 -9 24 39 -64 -34
10 -26 -24 29 -5 -48 41 21
-34 -1 42 -7 89 76 -112 -33
2 -2 18 5 -31 -24 -34 83
28 -37 -7 49 -49 8 -23 -47
-63 -16 -23 11 -14 19 -3 6
-85 -53 9 -14 -1 -40 -38 -57
-83 -97 6 -33 1 23 -19 23
-13 51 9 2 -24 -3 9 -39
-66 17 -9 3 -55 -30 -117 -36
-45 62 -50 15 -17 -27 -26 -27
-60 13 13 -127 2 -77 42 26
7 -63 -16 -59 -115 11 -35 4
31 29 -19 -60 11 22 -4 -39
-6 -39 -23 -11 -25 26 -46 26
-6 -6 109 -49 -56 -116 -15 -5
-8 33 -30 -15 -28 10 -50 -12
-3 -4 -14 -3 -51 -15 59 17
29 119 -24 58 -2 -36 35 -17
33 40 -4 9 10 41 -23 -51
-25 10 -39 14 -53 -90 -2 -75
-97 -45 -47 76 10 54 -8 4
-62 5 -35 -45 -19 6 29 -17
-25 -15 -32 27 -62 -81 -16 -19
43 1 56 42 -11 -26 25 -28

model/cls_0_sep_dconvbias/depthwise i1 [1, 3, 3, 64]
00000000: 3300 f3b8 e4f5 7f07 ed02 5106 162d 1afc
00000010: 81f8 8edd 3a0d 98c2 8a27 1b09 f017 d1be
00000020: 14f4 fc81 d24a ed9a 26e4 0a01 f528 3bb0
00000030: e358 44f9 be4f 1c9e cf1c 2627 59e4 de08
00000040: 2ee9 42dc 2e18 b1da d151 7f15 02d2 ffa0
00000050: 960d 15b0 edfa 8110 8a45 7fe7 16f2 dcf9
00000060: 003b 0cd8 586b 4ff3 e199 4848 f704 7f13
00000070: e843 587f 5f47 1b13 1be7 3627 c6dd ed7e
00000080: 7fd8 3da0 1f83 ade9 d517 5b36 1125 04b3
00000090: b5fd aec1 7b02 d61a 8116 e8cf e416 3cb3
000000a0: fdb9 cb83 0a77 da81 7fe9 e351 d903 3789
000000b0: de7f 2e5b b85b 56ba 7f14 7f29 81dd 7fe2
000000c0: e8f1 4747 f0a9 becf 0e09 39d4 1a03 0075
000000d0: 77f5 7fd0 54fe 0f02 a005 717f fa1e f812
000000e0: c80a cb26 344c fdea f120 351c cc56 3bc2
000000f0: f626 7f0a dd4c f84b dbf7 bd2a 4eb7 f0ef
51 0 -13 -72 -28 -11 127 7
-19 2 81 6 22 45 26 -4
-127 -8 -114 -35 58 13 -104 -62
-118 39 27 9 -16 23 -47 -66
20 -12 -4 -127 -46 74 -19 -102
38 -28 10 1 -11 40 59 -80
-29 88 68 -7 -66 79 28 -98
-49 28 38 39 89 -28 -34 8
46 -23 66 -36 46 24 -79 -38
-47 81 127 21 2 -46 -1 -96
-106 13 21 -80 -19 -6 -127 16
-118 69 127 -25 22 -14 -36 -7
0 59 12 -40 88 107 79 -13
-31 -103 72 72 -9 4 127 19
-24 67 88 127 95 71 27 19
27 -25 54 39 -58 -35 -19 126
127 -40 61 -96 31 -125 -83 -23
-43 23 91 54 17 37 4 -77
-75 -3 -82 -63 123 2 -42 26
-127 22 -24 -49 -28 22 60 -77
-3 -71 -53 -125 10 119 -38 -127
127 -23 -29 81 -39 3 55 -119
-34 127 46 91 -72 91 86 -70
127 20 127 41 -127 -35 127 -30
-24 -15 71 71 -16 -87 -66 -49
14 9 57 -44 26 3 0 117
119 -11 127 -48 84 -2 15 2
-96 5 113 127 -6 30 -8 18
-56 10 -53 38 52 76 -3 -22
-15 32 53 28 -52 86 59 -62
-10 38 127 10 -35 76 -8 75
-37 -9 -67 42 78 -73 -16 -17

model/cls_0_sep_convbias/Conv2D i1 [6, 1, 1, 64]
00000000: 0106 0100 1700 1230 23f9 31eb d2eb 28eb
00000010: 00d6 fb07 0e95 11f8 7f2b 3803 f0dd 0bfa
00000020: 0f00 ed00 11e8 f40d 0d00 0207 e720 191a
00000030: 04f6 e627 e83c 0200 10f6 0738 17e5 0ffd
00000040: fefa ff00 e900 eed0 dd07 cf15 2e15 d715
00000050: 002a 05f9 f26b ee08 81d5 c8fd 1023 f506
00000060: f100 1401 ef17 0cf3 f300 fef9 19e0 e7e7
00000070: fc0a 1ad8 18c4 fe00 f00a f9c8 e91b f103
00000080: 05f5 e400 1700 10ff 6bd4 3b0e 32fb 1be2
00000090: 00e4 edcc 15de 25f9 7f3a 2009 f1eb 1092
000000a0: 0600 e815 19f8 d80a fe00 fe0b 0111 260f
000000b0: 20dd 0fcb d972 eb00 16dd 0243 f9f5 fee5
000000c0: fb0b 1c00 e900 f001 952c c5f2 ce05 e51e
000000d0: 001d 1335 eb22 db07 81c6 e0f7 0f15 f06e
000000e0: fa00 18eb e708 28f5 0200 02f4 ffef daf1
000000f0: df23 f135 278e 1500 ea23 febc 070b 021b
1 6 1 0 23 0 18 48
35 -7 49 -21 -46 -21 40 -21
0 -42 -5 7 14 -107 17 -8
127 43 56 3 -16 -35 11 -6
15 0 -19 0 17 -24 -12 13
13 0 2 7 -25 32 25 26
4 -10 -26 39 -24 60 2 0
16 -10 7 56 23 -27 15 -3
-2 -6 -1 0 -23 0 -18 -48
-35 7 -49 21 46 21 -41 21
0 42 5 -7 -14 107 -18 8
-127 -43 -56 -3 16 35 -11 6
-15 0 20 1 -17 23 12 -13
-13 0 -2 -7 25 -32 -25 -25
-4 10 26 -40 24 -60 -2 0
-16 10 -7 -56 -23 27 -15 3
5 -11 -28 0 23 0 16 -1
107 -44 59 14 50 -5 27 -30
0 -28 -19 -52 21 -34 37 -7
127 58 32 9 -15 -21 16 -110
6 0 -24 21 25 -8 -40 10
-2 0 -2 11 1 17 38 15
32 -35 15 -53 -39 114 -21 0
22 -35 2 67 -7 -11 -2 -27
-5 11 28 0 -23 0 -16 1
-107 44 -59 -14 -50 5 -27 30
0 29 19 53 -21 34 -37 7
-127 -58 -32 -9 15 21 -16 110
-6 0 24 -21 -25 8 40 -11
2 0 2 -12 -1 -17 -38 -15
-33 35 -15 53 39 -114 21 0
-22 35 -2 -68 7 11 2 27

model/cls_1_sep_dconvbias/depthwise i1 [1, 3, 3, 128]
00000000: 6ad2 91ae 7381 039a 0726 8110 53ce 0949
00000010: ee04 022a 1f15 1c22 23aa eb29 6eda 0f5b
00000020: 1e40 abd4 1f38 9de5 e073 590f 28be 06c5
00000030: c80d fb73 de0c a52b c848 7150 7fa6 318b
00000040: f531 bbf1 15b0 2a2d 817f 9dea 0181 c80c
00000050: e100 fc8b 41b5 5722 d6c2 3d35 98b0 817f
00000060: f356 d181 7f44 797f 78b2 0721 4527 ed9a
00000070: f295 a94f 51ec d309 717f ef7f e838 9320
00000080: f11c 81d3 93bd 7f36 e928 0f37 d720 4b02
00000090: 00b5 5cb1 d154 e4d9 b19d f03e 360d b6a3
000000a0: dc20 817f 7fb0 975f d6ec f281 2edd 41a3
000000b0: ca33 7f7f 7963 29c3 b9d1 4d6a 0141 7f63
000000c0: 19ee 03f2 d681 aad1 e854 cfdd 778a 01ea
000000d0: 8141 fd48 d6ec 7e9a d6bf 089f dc7f 0411
000000e0: 7f1f bfbc d8b5 3808 8f7f f642 cb06 7205
000000f0: 4909 7e4f 7df0 d6d6 77d9 f801 7f45 81ca
106 -46 -111 -82 115 -127 3 -102
7 38 -127 16 83 -50 9 73
-18 4 2 42 31 21 28 34
35 -86 -21 41 110 -38 15 91
30 64 -85 -44 31 56 -99 -27
-32 115 89 15 40 -66 6 -59
-56 13 -5 115 -34 12 -91 43
-56 72 113 80 127 -90 49 -117
-11 49 -69 -15 21 -80 42 45
-127 127 -99 -22 1 -127 -56 12
-31 0 -4 -117 65 -75 87 34
-42 -62 61 53 -104 -80 -127 127
-13 86 -47 -127 127 68 121 127
120 -78 7 33 69 39 -19 -102
-14 -107 -87 79 81 -20 -45 9
113 127 -17 127 -24 56 -109 32
-15 28 -127 -45 -109 -67 127 54
-23 40 15 55 -41 32 75 2
0 -75 92 -79 -47 84 -28 -39
-79 -99 -16 62 54 13 -74 -93
-36 32 -127 127 127 -80 -105 95
-42 -20 -14 -127 46 -35 65 -93
-54 51 127 127 121 99 41 -61
-71 -47 77 106 1 65 127 99
25 -18 3 -14 -42 -127 -86 -47
-24 84 -49 -35 119 -118 1 -22
-127 65 -3 72 -42 -20 126 -102
-42 -65 8 -97 -36 127 4 17
127 31 -65 -68 -40 -75 56 8
-113 127 -10 66 -53 6 114 5
73 9 126 79 125 -16 -42 -42
119 -39 -8 1 127 69 -127 -54

model/cls_1_sep_convbias/Conv2D i1 [4, 1, 1, 128]
00000000: fe00 0000 0001 0000 fc0c 0101 f8f7 4b00
00000010: 01fb 0900 0100 02de 000b 414b 38ff 0202
00000020: 0403 1800 f319 0302 00f3 7f00 0102 6ffe
00000030: 04b9 00f5 00f7 0403 0007 ff75 0003 8b00
00000040: 0101 0202 0d00 0001 00fb 001b ff00 c7ee
00000050: 00d8 cc00 0301 5300 3501 1307 0900 00ef
00000060: ff00 1a19 0104 00ff 0000 02ff 0100 e400
00000070: fb00 0000 1200 01fd e300 0002 1512 009e
00000080: 0200 0000 00fe 0000 04f3 ffff 0809 b500
00000090: fe05 f700 ff00 fe22 00f5 bfb4 c801 fefe
000000a0: fcfd e800 0de7 fdfe 000d 8100 fffe 9101
000000b0: fc47 000c 0109 fcfd 00f9 018b 00fd 7500
000000c0: ffff fefe f400 00ff 0004 00e5 0100 3912
000000d0: 0028 3400 fdff ad00 cbff edf9 f700 0010
000000e0: 01ff e6e7 00fc 0000 0001 fe01 ff00 1c00
000000f0: 0500 0000 ee00 ff03 1d00 00fe ebee 0062
-2 0 0 0 0 1 0 0
-4 12 1 1 -8 -9 75 0
1 -5 9 0 1 0 2 -34
0 11 65 75 56 -1 2 2
4 3 24 0 -13 25 3 2
0 -13 127 0 1 2 111 -2
4 -71 0 -11 0 -9 4 3
0 7 -1 117 0 3 -117 0
1 1 2 2 13 0 0 1
0 -5 0 27 -1 0 -57 -18
0 -40 -52 0 3 1 83 0
53 1 19 7 9 0 0 -17
-1 0 26 25 1 4 0 -1
0 0 2 -1 1 0 -28 0
-5 0 0 0 18 0 1 -3
-29 0 0 2 21 18 0 -98
2 0 0 0 0 -2 0 0
4 -13 -1 -1 8 9 -75 0
-2 5 -9 0 -1 0 -2 34
0 -11 -65 -76 -56 1 -2 -2
-4 -3 -24 0 13 -25 -3 -2
0 13 -127 0 -1 -2 -111 1
-4 71 0 12 1 9 -4 -3
0 -7 1 -117 0 -3 117 0
-1 -1 -2 -2 -12 0 0 -1
0 4 0 -27 1 0 57 18
0 40 52 0 -3 -1 -83 0
-53 -1 -19 -7 -9 0 0 16
1 -1 -26 -25 0 -4 0 0
0 1 -2 1 -1 0 28 0
5 0 0 0 -18 0 -1 3
29 0 0 -2 -21 -18 0 98

model/cls_2_sep_dconvbias/depthwise i1 [1, 3, 3, 256]
00000000: f696 e2f1 323c 1d23 df20 2fbe d358 db40
00000010: 58d0 c8ff b0c7 2ef9 5b4a 481f 9e5d c17f
00000020: 7267 cfd7 e77f 072a 0f37 fa4c ffd9 3b09
00000030: 1e5a f4cc 261f 8803 1629 810f 0fc2 b181
00000040: 2d9e 39e9 ee25 321d b83b f613 5157 53af
00000050: f9d9 cf0d 61d1 3ec9 fef2 48c5 7f0a 7fdf
00000060: fefb 1a11 81c0 c28a 3c81 d1f4 15ce 31fc
00000070: 1d21 9757 f628 d181 a7f3 bc13 e281 41db
00000080: 4304 78c9 02f9 8ff8 281d 4af3 9044 5539
00000090: b394 25ff 4145 7f66 3d5e 8e54 70fb 494f
000000a0: f51b f2ca 1746 810b a92f d04d cf40 d7f8
000000b0: 624b 155e b2e6 ac32 70e9 0844 caec fa84
000000c0: 0efa ff81 6f0a 81d1 ec29 7f9f f90f de5e
000000d0: 0c1b deea 81ee 16b8 32e5 b4fa 5ace f952
000000e0: 34e2 7f61 3c14 04f7 f8f8 ebc6 557f 81ef
000000f0: 20c4 1c81 b660 3aef 7f65 bf04 0239 ee13
-10 -106 -30 -15 50 60 29 35
-33 32 47 -66 -45 88 -37 64
88 -48 -56 -1 -80 -57 46 -7
91 74 72 31 -98 93 -63 127
114 103 -49 -41 -25 127 7 42
15 55 -6 76 -1 -39 59 9
30 90 -12 -52 38 31 -120 3
22 41 -127 15 15 -62 -79 -127
45 -98 57 -23 -18 37 50 29
-72 59 -10 19 81 87 83 -81
-7 -39 -49 13 97 -47 62 -55
-2 -14 72 -59 127 10 127 -33
-2 -5 26 17 -127 -64 -62 -118
60 -127 -47 -12 21 -50 49 -4
29 33 -105 87 -10 40 -47 -127
-89 -13 -68 19 -30 -127 65 -37
67 4 120 -55 2 -7 -113 -8
40 29 74 -13 -112 68 85 57
-77 -108 37 -1 65 69 127 102
61 94 -114 84 112 -5 73 79
-11 27 -14 -54 23 70 -127 11
-87 47 -48 77 -49 64 -41 -8
98 75 21 94 -78 -26 -84 50
112 -23 8 68 -54 -20 -6 -124
14 -6 -1 -127 111 10 -127 -47
-20 41 127 -97 -7 15 -34 94
12 27 -34 -22 -127 -18 22 -72
50 -27 -76 -6 90 -50 -7 82
52 -30 127 97 60 20 4 -9
-8 -8 -21 -58 85 127 -127 -17
32 -60 28 -127 -74 96 58 -17
127 101 -65 4 2 57 -18 19
