ml-embedded-evaluation-kit/resources_downloaded/object_detection/ssd_slim_120x160x1_yaw_landmarks_v3_int8_vela_H256.tflite (tflite, 456016 bytes, 2 tensors)

main_split_1_command_stream u1 [16140]
000000 43 4f 50 31 01 00 10 00 08 30 00 00 00 00 06 10
       67 79 80 49 1 0 16 0 8 48 0 0 0 0 6 16
000010 05 00 00 00 05 00 00 00 05 00 00 00 02 00 bb 0f
       5 0 0 0 5 0 0 0 5 0 0 0 2 0 187 15
000020 30 01 00 00 30 40 00 00 60 b9 00 00 31 01 01 00
       48 1 0 0 48 64 0 0 96 185 0 0 49 1 1 0
000030 31 40 00 00 00 4b 00 00 32 40 00 00 a0 01 00 00
       49 64 0 0 0 75 0 0 50 64 0 0 160 1 0 0
000040 10 00 00 00 0f 01 01 00 00 40 00 00 00 00 00 00
       16 0 0 0 15 1 1 0 0 64 0 0 0 0 0 0
000050 01 40 00 00 00 00 00 00 02 40 00 00 00 00 00 00
       1 64 0 0 0 0 0 0 2 64 0 0 0 0 0 0
000060 03 40 00 00 00 00 00 00 0b 01 77 00 0c 01 77 00
       3 64 0 0 0 0 0 0 11 1 119 0 12 1 119 0
000070 0a 01 9f 00 04 01 00 00 06 40 00 00 01 00 00 00
       10 1 159 0 4 1 0 0 6 64 0 0 1 0 0 0
000080 05 40 00 00 a0 00 00 00 04 40 00 00 01 00 00 00
       5 64 0 0 160 0 0 0 4 64 0 0 1 0 0 0
000090 09 01 00 00 05 01 01 00 07 01 00 00 00 01 01 00
       9 1 0 0 5 1 1 0 7 1 0 0 0 1 1 0
0000a0 01 01 01 00 03 01 00 00 02 01 00 00 1f 01 01 00
       1 1 1 0 3 1 0 0 2 1 0 0 31 1 1 0
0000b0 10 40 00 00 00 2c 01 00 11 40 00 00 00 00 00 00
       16 64 0 0 0 44 1 0 17 64 0 0 0 0 0 0
0000c0 12 40 00 00 00 00 00 00 13 40 00 00 00 00 00 00
       18 64 0 0 0 0 0 0 19 64 0 0 0 0 0 0
0000d0 1b 01 3b 00 1c 01 3b 00 1a 01 4f 00 12 01 3b 00
       27 1 59 0 28 1 59 0 26 1 79 0 18 1 59 0
0000e0 11 01 4f 00 13 01 0f 00 16 40 00 00 00 05 00 00
       17 1 79 0 19 1 15 0 22 64 0 0 0 5 0 0
0000f0 15 40 00 00 00 05 00 00 14 40 00 00 10 00 00 00
       21 64 0 0 0 5 0 0 20 64 0 0 16 0 0 0

main_split_1_flash u1 [438448]
000000 00 00 00 00 00 00 00 00 00 00 00 00 00 00 00 00
       0 0 0 0 0 0 0 0 0 0 0 0 0 0 0 0
000010 00 00 00 00 00 00 00 00 00 00 00 00 00 00 00 00
       0 0 0 0 0 0 0 0 0 0 0 0 0 0 0 0
000020 00 00 00 00 00 00 00 00 00 00 00 00 00 00 00 00
       0 0 0 0 0 0 0 0 0 0 0 0 0 0 0 0
000030 00 00 00 00 00 00 00 00 00 00 00 00 00 00 00 00
       0 0 0 0 0 0 0 0 0 0 0 0 0 0 0 0
000040 00 00 00 00 00 00 00 00 00 00 00 00 00 00 00 00
       0 0 0 0 0 0 0 0 0 0 0 0 0 0 0 0
000050 00 00 00 00 00 00 00 00 00 00 00 00 00 00 00 00
       0 0 0 0 0 0 0 0 0 0 0 0 0 0 0 0
000060 00 00 00 00 00 00 00 00 00 00 00 00 00 00 00 00
       0 0 0 0 0 0 0 0 0 0 0 0 0 0 0 0
000070 00 00 00 00 00 00 00 00 00 00 00 00 00 00 00 00
       0 0 0 0 0 0 0 0 0 0 0 0 0 0 0 0
000080 00 00 00 00 00 00 00 00 00 00 00 00 00 00 00 00
       0 0 0 0 0 0 0 0 0 0 0 0 0 0 0 0
000090 00 00 00 00 00 00 00 00 00 00 00 00 00 00 00 00
       0 0 0 0 0 0 0 0 0 0 0 0 0 0 0 0
0000a0 00 00 00 00 00 00 00 00 00 00 00 00 00 00 00 00
       0 0 0 0 0 0 0 0 0 0 0 0 0 0 0 0
0000b0 00 00 00 00 00 00 00 00 00 00 00 00 00 00 00 00
       0 0 0 0 0 0 0 0 0 0 0 0 0 0 0 0
0000c0 00 00 00 00 00 00 00 00 00 00 00 00 00 00 00 00
       0 0 0 0 0 0 0 0 0 0 0 0 0 0 0 0
0000d0 00 00 00 00 00 00 00 00 00 00 00 00 00 00 00 00
       0 0 0 0 0 0 0 0 0 0 0 0 0 0 0 0
0000e0 00 00 00 00 00 00 00 00 00 00 00 00 00 00 00 00
       0 0 0 0 0 0 0 0 0 0 0 0 0 0 0 0
0000f0 00 00 00 00 00 00 00 00 00 00 00 00 00 00 00 00
       0 0 0 0 0 0 0 0 0 0 0 0 0 0 0 0
