ml-embedded-evaluation-kit/resources_downloaded/object_detection/ssd_slim_120x160x1_yaw_landmarks_v3_int8.tflite (tflite, 519400 bytes, 56 tensors)

model/basenet.0.0_conv/Conv2D i1 [16, 3, 3, 1]
000000 cd 53 e4 ba 7f be f8 13 f9 48 f5 c7 7f d7 9d 1b
       -51 83 -28 -70 127 -66 -8 19 -7 72 -11 -57 127 -41 -99 27
000010 f1 04 e3 23 ed 41 81 50 06 f5 ff 1c 38 fd 23 7f
       -15 4 -29 35 -19 65 -127 80 6 -11 -1 28 56 -3 35 127
000020 1d 17 39 21 05 11 03 fd 7f 11 fa 31 16 05 fa e2
       29 23 57 33 5 17 3 -3 127 17 -6 49 22 5 -6 -30
000030 ff 0d 7f 00 fa 95 02 fa ff 16 f4 e2 68 22 81 12
       -1 13 127 0 -6 -107 2 -6 -1 22 -12 -30 104 34 -127 18
000040 1f 37 ee 33 e7 09 81 f9 81 01 2d 43 77 28 53 19
       31 55 -18 51 -25 9 -127 -7 -127 1 45 67 119 40 83 25
000050 03 bb db b4 cb 81 e4 af de ea 4a 75 1c f9 f8 f9
       3 -69 -37 -76 -53 -127 -28 -81 -34 -22 74 117 28 -7 -8 -7
000060 c1 81 f9 cf 88 f3 48 7f 18 fd da fe ff 01 00 fe
       -63 -127 -7 -49 -120 -13 72 127 24 -3 -38 -2 -1 1 0 -2
000070 fc 02 3b 81 45 02 22 4c e4 81 b1 23 50 04 03 fd
       -4 2 59 -127 69 2 34 76 -28 -127 -79 35 80 4 3 -3
000080 fa 8e 81 ef 7a 7b 0d 38 f0 fd d7 81 03 f3 25 63
       -6 -114 -127 -17 122 123 13 56 -16 -3 -41 -127 3 -13 37 99

model/basenet.1.1_bn/FusedBatchNormV3;model/basenet.1.0_dconv/depthwise i1 [1, 3, 3, 16]
000000 ff fd 00 01 0c fd ff 03 09 fe 03 ff 01 fe 06 13
       -1 -3 0 1 12 -3 -1 3 9 -2 3 -1 1 -2 6 19
000010 fe fc 02 81 4a d4 7f 09 42 08 0d 01 7f 03 81 19
       -2 -4 2 -127 74 -44 127 9 66 8 13 1 127 3 -127 25
000020 fd ff ff 0c 06 05 a4 fb 18 fd 01 00 00 00 02 fb
       -3 -1 -1 12 6 5 -92 -5 24 -3 1 0 0 0 2 -5
000030 03 fc fc 0a 01 ce 02 fc 40 06 09 01 fd 01 01 06
       3 -4 -4 10 1 -50 2 -4 64 6 9 1 -3 1 1 6
000040 7f 7f 81 0e 7f 81 10 7f dc 7f 81 7f fb 7f ec 7f
       127 127 -127 14 127 -127 16 127 -36 127 -127 127 -5 127 -20 127
000050 03 fb fe f6 16 03 fb f5 81 08 0b 04 ff fe f4 09
       3 -5 -2 -10 22 3 -5 -11 -127 8 11 4 -1 -2 -12 9
000060 fc fd 03 fc fc 0a fe f4 ef f7 02 fc ff 01 00 fd
       -4 -3 3 -4 -4 10 -2 -12 -17 -9 2 -4 -1 1 0 -3
000070 fd f8 03 61 0f 07 fe f3 d2 f6 06 fe 00 ff 05 01
       -3 -8 3 97 15 7 -2 -13 -46 -10 6 -2 0 -1 5 1
000080 fb fc 05 02 f9 01 fd fc 27 04 02 ff 00 fc 01 fd
       -5 -4 5 2 -7 1 -3 -4 39 4 2 -1 0 -4 1 -3

model/basenet.1.3_conv/Conv2D i1 [32, 1, 1, 16]
000000 f4 03 07 fb 01 52 07 8c 10 0c 13 b3 15 81 ff ed
       -12 3 7 -5 1 82 7 -116 16 12 19 -77 21 -127 -1 -19
000010 ae f0 7f 0a 05 f7 ea 03 11 f3 05 01 a4 f5 f5 0e
       -82 -16 127 10 5 -9 -22 3 17 -13 5 1 -92 -11 -11 14
000020 39 f0 bc 02 0a ff 7f fb 06 f9 fc f4 38 f5 0e 06
       57 -16 -68 2 10 -1 127 -5 6 -7 -4 -12 56 -11 14 6
000030 a3 1e 6d 81 f9 d5 c7 01 22 05 c2 fd c4 fb 24 0e
       -93 30 109 -127 -7 -43 -57 1 34 5 -62 -3 -60 -5 36 14
000040 a0 fa 72 bb f1 fd 0f 9a ca 09 eb 70 bf 7f ef d7
       -96 -6 114 -69 -15 -3 15 -102 -54 9 -21 112 -65 127 -17 -41
000050 ec 2d 32 0e fd 21 e8 e0 35 07 d9 c2 e8 81 2c 20
       -20 45 50 14 -3 33 -24 -32 53 7 -39 -62 -24 -127 44 32
000060 07 41 f4 39 53 c4 dd 13 5c 39 2e 2f f5 14 81 1e
       7 65 -12 57 83 -60 -35 19 92 57 46 47 -11 20 -127 30
000070 e2 81 25 05 03 14 f1 de ea 05 22 f2 f9 d8 f4 fe
       -30 -127 37 5 3 20 -15 -34 -22 5 34 -14 -7 -40 -12 -2
000080 d3 a4 29 81 04 17 e2 04 d8 23 9a 91 dd d6 36 ad
       -45 -92 41 -127 4 23 -30 4 -40 35 -102 -111 -35 -42 54 -83
000090 ba 4c 7f 0d fd 03 f6 ec 0d 16 0a ec ce f5 f6 c5
       -70 76 127 13 -3 3 -10 -20 13 22 10 -20 -50 -11 -10 -59
0000a0 10 01 c6 02 f0 7f f3 bf fd ff e5 c3 23 8c 02 e4
       16 1 -58 2 -16 127 -13 -65 -3 -1 -27 -61 35 -116 2 -28
0000b0 19 0d db e2 40 c8 17 1f 1d 7f f5 07 05 1c ed 05
       25 13 -37 -30 64 -56 23 31 29 127 -11 7 5 28 -19 5
0000c0 e5 f8 a8 ff dd db bd 7f b5 5e 13 03 0c 63 18 a3
       -27 -8 -88 -1 -35 -37 -67 127 -75 94 19 3 12 99 24 -93
0000d0 e6 31 17 f0 f7 0f f4 0c 16 0d 81 ac db de 05 10
       -26 49 23 -16 -9 15 -12 12 22 13 -127 -84 -37 -34 5 16
0000e0 ad 08 7f e5 f6 bd a0 0c 0d eb 14 37 8c 2a b9 17
       -83 8 127 -27 -10 -67 -96 12 13 -21 20 55 -116 42 -71 23
0000f0 5d 16 86 2a 7f b0 56 33 ee 7f 53 2e 40 26 aa 53
       93 22 -122 42 127 -80 86 51 -18 127 83 46 64 38 -86 83

model/basenet.2.1_bn/FusedBatchNormV3;model/basenet.2.0_dconv/depthwise;model/basenet.4.0_dconv/depthwise i1 [1, 3, 3, 32]
000000 42 ea f2 38 14 c7 b7 c8 36 d4 d7 cf 2c cc e2 18
       66 -22 -14 56 20 -57 -73 -56 54 -44 -41 -49 44 -52 -30 24
000010 18 1b 13 fb dc b5 ad b9 01 f4 cb cb 1f 51 a1 47
       24 27 19 -5 -36 -75 -83 -71 1 -12 -53 -53 31 81 -95 71
000020 5f d4 fc 57 39 98 33 a9 1c 2c b6 b8 42 b0 a6 1c
       95 -44 -4 87 57 -104 51 -87 28 44 -74 -72 66 -80 -90 28
000030 34 2e 31 fc 5b af 81 89 e4 11 5a d4 29 6b c3 4d
       52 46 49 -4 91 -81 -127 -119 -28 17 90 -44 41 107 -61 77
000040 40 e4 f0 36 1e c8 55 ca cb 3a af b8 19 d2 b6 1c
       64 -28 -16 54 30 -56 85 -54 -53 58 -81 -72 25 -46 -74 28
000050 35 21 2d 03 62 e1 d9 bb ca 09 40 f7 1e 34 02 14
       53 33 45 3 98 -31 -39 -69 -54 9 64 -9 30 52 2 20
000060 bd c8 96 41 55 ab 81 ae d0 81 c2 e2 34 ae f0 07
       -67 -56 -106 65 85 -85 -127 -82 -48 -127 -62 -30 52 -82 -16 7
000070 3d 41 4a 19 cb 89 2f bd e1 1e 86 db 59 57 81 53
       61 65 74 25 -53 -119 47 -67 -31 30 -122 -37 89 87 -127 83
000080 81 81 91 49 7f 81 dc 81 7f 3c 83 d0 7f 81 96 16
       -127 -127 -111 73 127 -127 -36 -127 127 60 -125 -48 127 -127 -106 22
000090 7f 7f 7f 17 81 81 44 83 93 7f e9 2b 7f 7f fc 7f
       127 127 127 23 -127 -127 68 -125 -109 127 -23 43 127 127 -4 127
0000a0 ce b0 c7 1a 33 db 61 af 46 48 81 08 63 ae 81 0d
       -50 -80 -57 26 51 -37 97 -81 70 72 -127 8 99 -82 -127 13
0000b0 5e 3f 42 18 5a d4 2e bc 81 71 7f 4b 36 47 3a 3a
       94 63 66 24 90 -44 46 -68 -127 113 127 75 54 71 58 58
0000c0 2d de 90 e1 5e c9 f5 c9 a7 c9 c7 19 06 d8 08 e3
       45 -34 -112 -31 94 -55 -11 -55 -89 -55 -57 25 6 -40 8 -29
0000d0 2d 31 35 9b 15 c3 ec b2 eb 2d d2 1f 3e 0f be 26
       45 49 53 -101 21 -61 -20 -78 -21 45 -46 31 62 15 -66 38
0000e0 24 bb 81 81 6f c6 a2 af c1 25 9d 7f 4c b4 f0 81
       36 -69 -127 -127 111 -58 -94 -81 -63 37 -99 127 76 -76 -16 -127
0000f0 4e 62 2c 81 d1 ae e6 81 be 7d b0 7f 78 2f 20 54
       78 98 44 -127 -47 -82 -26 -127 -66 125 -80 127 120 47 32 84

model/basenet.2.3_conv/Conv2D i1 [32, 1, 1, 32]
000000 0c f7 f5 1d 1a f2 05 f6 09 fa 3c d7 ee d8 c0 81
       12 -9 -11 29 26 -14 5 -10 9 -6 60 -41 -18 -40 -64 -127
000010 d5 13 ee 22 0c 13 bf 1c f0 d4 0c c5 fb 10 0d 18
       -43 19 -18 34 12 19 -65 28 -16 -44 12 -59 -5 16 13 24
000020 07 1a c2 df 12 17 f6 14 fc e7 7f 22 ee ca f6 ee
       7 26 -62 -33 18 23 -10 20 -4 -25 127 34 -18 -54 -10 -18
000030 b7 f5 30 0e ff 08 b6 06 52 3a fc 31 0d 22 11 c0
       -73 -11 48 14 -1 8 -74 6 82 58 -4 49 13 34 17 -64
000040 99 fc e3 2c 0e a6 da 17 21 f3 f0 d9 ef cd d6 3b
       -103 -4 -29 44 14 -90 -38 23 33 -13 -16 -39 -17 -51 -42 59
000050 16 3f c0 f7 21 6a fe 09 d4 fa df c8 7f e5 ee 1c
       22 63 -64 -9 33 106 -2 9 -44 -6 -33 -56 127 -27 -18 28
000060 dc 38 10 fa 81 b5 17 cf f8 f5 07 0a d1 ec e1 f1
       -36 56 16 -6 -127 -75 23 -49 -8 -11 7 10 -47 -20 -31 -15
000070 bc 29 44 d5 ec 31 c4 1b e5 f9 fa 22 d8 ea 5a fe
       -68 41 68 -43 -20 49 -60 27 -27 -7 -6 34 -40 -22 90 -2
000080 ff 36 29 e6 16 7d cd 3e ee 0a 4a eb a6 c7 02 ce
       -1 54 41 -26 22 125 -51 62 -18 10 74 -21 -90 -57 2 -50
000090 e5 81 eb db ef 29 b3 ed 1e f9 a3 35 0c 45 b2 a8
       -27 -127 -21 -37 -17 41 -77 -19 30 -7 -93 53 12 69 -78 -88
0000a0 0d a3 7f 25 06 47 f9 04 f4 e8 25 13 f3 f1 ce 12
       13 -93 127 37 6 71 -7 4 -12 -24 37 19 -13 -15 -50 18
0000b0 06 f8 19 08 f1 ed 16 f3 0f 05 e4 0d f7 19 eb db
       6 -8 25 8 -15 -19 22 -13 15 5 -28 13 -9 25 -21 -37
0000c0 01 03 00 2e ed b5 e1 f9 de db 20 0a c6 81 f6 13
       1 3 0 46 -19 -75 -31 -7 -34 -37 32 10 -58 -127 -10 19
0000d0 11 2a f8 f9 d9 2c 06 12 e8 02 df d6 cb fd 1d b1
       17 42 -8 -7 -39 44 6 18 -24 2 -33 -42 -53 -3 29 -79
0000e0 c4 08 cd db ae 2e f9 ab e3 14 81 30 18 2d c4 0a
       -60 8 -51 -37 -82 46 -7 -85 -29 20 -127 48 24 45 -60 10
0000f0 05 af 55 4c f8 89 d5 cd 52 48 b5 05 f5 1e da ed
       5 -81 85 76 -8 -119 -43 -51 82 72 -75 5 -11 30 -38 -19

model/basenet.3.1_bn/FusedBatchNormV3;model/basenet.3.0_dconv/depthwise;model/basenet.4.0_dconv/depthwise i1 [1, 3, 3, 32]
000000 f8 27 58 fc e0 fb eb 7f f6 19 b6 ae f4 85 18 ef
       -8 39 88 -4 -32 -5 -21 127 -10 25 -74 -82 -12 -123 24 -17
000010 f9 1a f4 36 f8 1b fa 01 f2 1e 0d 12 e8 0a f4 f9
       -7 26 -12 54 -8 27 -6 1 -14 30 13 18 -24 10 -12 -7
000020 7f 7f 7a b4 33 a7 e0 6a a9 e4 05 f2 07 e8 07 1b
       127 127 122 -76 51 -89 -32 106 -87 -28 5 -14 7 -24 7 27
000030 08 01 12 22 1c 9a 22 06 24 75 eb 0d aa 6b fd cf
       8 1 18 34 28 -102 34 6 36 117 -21 13 -86 107 -3 -49
000040 fb 4c 7f 00 cf ef e9 74 e8 d1 dc 2b 0a 33 18 e8
       -5 76 127 0 -49 -17 -23 116 -24 -47 -36 43 10 51 24 -24
000050 f1 d0 f0 3b fa 12 d8 eb 36 9d f4 c8 df 1d f4 14
       -15 -48 -16 59 -6 18 -40 -21 54 -99 -12 -56 -33 29 -12 20
000060 bd c0 b6 09 79 d4 d7 fb be c5 8e 81 8b 26 fe 05
       -67 -64 -74 9 121 -44 -41 -5 -66 -59 -114 -127 -117 38 -2 5
000070 ea 10 0a 2b f0 23 7f d7 f6 41 f1 fe e5 fa 12 40
       -22 16 10 43 -16 35 127 -41 -10 65 -15 -2 -27 -6 18 64
000080 8a 9f ba 81 6c bc 20 ce 81 81 85 75 24 ed 81 50
       -118 -97 -70 -127 108 -68 32 -50 -127 -127 -123 117 36 -19 -127 80
000090 81 6e cd 2a fb 81 0d 77 f5 f9 b2 45 1d 81 3a 8c
       -127 110 -51 42 -5 -127 13 119 -11 -7 -78 69 29 -127 58 -116
0000a0 b1 b3 e8 4a 66 d0 65 b8 be e7 81 21 7f 01 ed ec
       -79 -77 -24 74 102 -48 101 -72 -66 -25 -127 33 127 1 -19 -20
0000b0 bd fb 09 52 e7 ca bb 9f 7f 85 de fe ed fe e0 51
       -67 -5 9 82 -25 -54 -69 -97 127 -123 -34 -2 -19 -2 -32 81
0000c0 ff ed ca f4 49 21 0c d4 1a d9 15 c6 20 7f 10 00
       -1 -19 -54 -12 73 33 12 -44 26 -39 21 -58 32 127 16 0
0000d0 2d 1d 37 f3 ff f8 46 f5 dc 0f d0 d6 09 0d 25 33
       45 29 55 -13 -1 -8 70 -11 -36 15 -48 -42 9 13 37 51
0000e0 3f bb 67 f2 95 7f 7f 3b 52 e5 b8 46 10 dc c6 7f
       63 -69 103 -14 -107 127 127 59 82 -27 -72 70 16 -36 -58 127
0000f0 78 31 81 81 7f a0 9f 7f e1 81 81 bf 7f c2 7f 81
       120 49 -127 -127 127 -96 -97 127 -31 -127 -127 -65 127 -62 127 -127

model/basenet.3.3_conv/Conv2D i1 [32, 1, 1, 32]
000000 13 cd e2 cd 0b 1c 9f fa 04 01 ae f6 ab 11 8d 3f
       19 -51 -30 -51 11 28 -97 -6 4 1 -82 -10 -85 17 -115 63
000010 35 f2 a8 5b 10 e2 1d 2e 0b 1f 81 68 f8 10 5b c3
       53 -14 -88 91 16 -30 29 46 11 31 -127 104 -8 16 91 -61
000020 05 59 34 c4 f1 04 3a 0d 47 49 e0 14 20 07 c8 0e
       5 89 52 -60 -15 4 58 13 71 73 -32 20 32 7 -56 14
000030 ae 14 81 93 f9 b2 c8 95 22 1b 16 fc de c6 0a d6
       -82 20 -127 -109 -7 -78 -56 -107 34 27 22 -4 -34 -58 10 -42
000040 e1 e2 0a 09 ea de e1 dc fd d5 d7 fb df 51 de c9
       -31 -30 10 9 -22 -34 -31 -36 -3 -43 -41 -5 -33 81 -34 -55
000050 e3 23 fd 0e f2 25 01 07 f8 cd a4 7f 1e 2d fe 3a
       -29 35 -3 14 -14 37 1 7 -8 -51 -92 127 30 45 -2 58
000060 dd 00 fa b2 23 0e 03 cf e4 59 f5 b5 f3 37 19 81
       -35 0 -6 -78 35 14 3 -49 -28 89 -11 -75 -13 55 25 -127
000070 12 0d e3 1e e4 f2 e6 08 dc 79 01 1c 28 6b d4 ce
       18 13 -29 30 -28 -14 -26 8 -36 121 1 28 40 107 -44 -50
000080 da 15 e4 23 21 d9 ef d3 f9 d7 e8 42 d9 f5 3e 81
       -38 21 -28 35 33 -39 -17 -45 -7 -41 -24 66 -39 -11 62 -127
000090 03 cc 14 de aa 36 14 1c da ed e2 d9 0c ef e5 4b
       3 -52 20 -34 -86 54 20 28 -38 -19 -30 -39 12 -17 -27 75
0000a0 dd 1d 1a fe cb 00 c8 fc 27 e8 e9 09 4d 0d f8 00
       -35 29 26 -2 -53 0 -56 -4 39 -24 -23 9 77 13 -8 0
0000b0 f8 03 09 f2 30 33 58 81 56 0f 73 2b ee eb 0a f1
       -8 3 9 -14 48 51 88 -127 86 15 115 43 -18 -21 10 -15
0000c0 42 05 f0 e1 05 01 98 69 3a 25 2e 27 36 f2 cc 26
       66 5 -16 -31 5 1 -104 105 58 37 46 39 54 -14 -52 38
0000d0 0d ab 05 45 5a a3 cb 56 ce e1 ce 81 e2 90 1e bf
       13 -85 5 69 90 -93 -53 86 -50 -31 -50 -127 -30 -112 30 -65
0000e0 20 ca 1c 70 fe e4 75 d6 37 c1 4c 97 81 e7 e9 28
       32 -54 28 112 -2 -28 117 -42 55 -63 76 -105 -127 -25 -23 40
0000f0 08 ec f2 eb 03 a1 ec 3d 5a a0 fb e4 c8 03 15 d3
       8 -20 -14 -21 3 -95 -20 61 90 -96 -5 -28 -56 3 21 -45

model/basenet.4.1_bn/FusedBatchNormV3;model/basenet.4.0_dconv/depthwise i1 [1, 3, 3, 32]
000000 05 4e 29 eb 0a 4a a1 2a 90 13 ee 7a f3 43 ff 1c
       5 78 41 -21 10 74 -95 42 -112 19 -18 122 -13 67 -1 28
000010 db 5a c2 23 fe f2 1e 04 dc 1d ec 4f 3a 11 c9 e2
       -37 90 -62 35 -2 -14 30 4 -36 29 -20 79 58 17 -55 -30
000020 41 49 48 af 23 6f 23 4a 94 ea 8b 7f 20 31 ef 1f
       65 73 72 -81 35 111 35 74 -108 -22 -117 127 32 49 -17 31
000030 b6 7f be 28 cd e5 28 0d 81 81 2a 64 7f 22 85 1a
       -74 127 -66 40 -51 -27 40 13 -127 -127 42 100 127 34 -123 26
000040 62 35 43 d5 12 40 22 2c 71 e7 b6 73 11 fd fe 2c
       98 53 67 -43 18 64 34 44 113 -25 -74 115 17 -3 -2 44
000050 c8 26 ca 1b fe e2 06 f7 ec 9e fa 29 4c 13 d8 23
       -56 38 -54 27 -2 -30 6 -9 -20 -98 -6 41 76 19 -40 35
000060 33 55 32 ce 44 3a 81 3b 3a fb da 0b f0 5a 42 7f
       51 85 50 -50 68 58 -127 59 58 -5 -38 11 -16 90 66 127
000070 81 1b 97 27 1b d9 fb da c0 df d5 60 34 20 99 33
       -127 27 -105 39 27 -39 -5 -38 -64 -33 -43 96 52 32 -103 51
000080 7f 7f 7f 84 7f 7f ff 7f c8 0b 82 1d d7 64 7f 7f
       127 127 127 -124 127 127 -1 127 -56 11 -126 29 -41 100 127 127
000090 a1 50 81 7f 66 01 c9 bf e5 b7 78 7f 77 7f 89 55
       -95 80 -127 127 102 1 -55 -65 -27 -73 120 127 119 127 -119 85
0000a0 52 5d 59 ae 4c 6a 63 4f bd 99 81 22 00 33 32 07
       82 93 89 -82 76 106 99 79 -67 -103 -127 34 0 51 50 7
0000b0 ca 48 d1 3c 7f 08 d8 d6 31 91 92 65 75 7a cb 35
       -54 72 -47 60 127 8 -40 -42 49 -111 -110 101 117 122 -53 53
0000c0 29 02 0d a7 22 32 b8 2a 7f 16 1c b4 e8 57 dd 3e
       41 2 13 -89 34 50 -72 42 127 22 28 -76 -24 87 -35 62
0000d0 c6 ca a6 1c f8 ef da d6 dd 2f c4 15 fa 46 ab 7f
       -58 -54 -90 28 -8 -17 -38 -42 -35 47 -60 21 -6 70 -85 127
0000e0 43 54 55 81 59 4e e4 42 2c 7f c1 da 81 7f c6 2b
       67 84 85 -127 89 78 -28 66 44 127 -63 -38 -127 127 -58 43
0000f0 be fa ba 16 d9 41 81 81 3e e5 4c 72 37 70 81 46
       -66 -6 -70 22 -39 65 -127 -127 62 -27 76 114 55 112 -127 70

model/basenet.4.3_conv/Conv2D i1 [64, 1, 1, 32]
000000 88 b4 73 22 f8 76 d8 13 f5 f1 50 e5 e9 13 2f 30
       -120 -76 115 34 -8 118 -40 19 -11 -15 80 -27 -23 19 47 48
000010 09 f0 ac b7 04 ba 81 0f 6d cc 16 0b 54 ed 1e 74
       9 -16 -84 -73 4 -70 -127 15 109 -52 22 11 84 -19 30 116
000020 d8 e5 f5 5b a2 27 23 ef 59 8c fc 0c ef 4b 81 bc
       -40 -27 -11 91 -94 39 35 -17 89 -116 -4 12 -17 75 -127 -68
000030 19 6f f5 f3 6b ca 05 f1 d5 c1 09 1b ff c8 cb 10
       25 111 -11 -13 107 -54 5 -15 -43 -63 9 27 -1 -56 -53 16
000040 ea f5 06 18 eb 3c e7 02 f4 09 f9 7f 1d 14 19 f9
       -22 -11 6 24 -21 60 -25 2 -12 9 -7 127 29 20 25 -7
000050 08 ff fc e3 f3 f0 f3 f1 cd 1e 0a 08 f5 dd fd f8
       8 -1 -4 -29 -13 -16 -13 -15 -51 30 10 8 -11 -35 -3 -8
000060 8e 22 f1 8d b1 bc 36 e5 f9 ca 1e 22 07 75 d2 7f
       -114 34 -15 -115 -79 -68 54 -27 -7 -54 30 34 7 117 -46 127
000070 9e c5 cf 28 ff c0 1f fd 4f 96 f0 15 c4 d8 29 2d
       -98 -59 -49 40 -1 -64 31 -3 79 -106 -16 21 -60 -40 41 45
000080 ed ed c8 81 2c 2b 27 fb 02 0e 4e 74 28 50 ae e3
       -19 -19 -56 -127 44 43 39 -5 2 14 78 116 40 80 -82 -29
000090 3f b9 f2 ee 02 f8 08 e0 22 3c c3 e9 0a e2 f9 0e
       63 -71 -14 -18 2 -8 8 -32 34 60 -61 -23 10 -30 -7 14
0000a0 64 f1 b0 17 02 e6 0b dd da 05 7f d9 0c 1b bb 17
       100 -15 -80 23 2 -26 11 -35 -38 5 127 -39 12 27 -69 23
0000b0 1e 68 9a 15 f1 17 08 07 54 63 cf 5c fb d0 0c fc
       30 104 -102 21 -15 23 8 7 84 99 -49 92 -5 -48 12 -4
0000c0 5a eb cf 11 fe fd c0 22 7f 00 48 13 29 29 09 b9
       90 -21 -49 17 -2 -3 -64 34 127 0 72 19 41 41 9 -71
0000d0 db c6 4d 00 05 c4 d1 24 ae d4 f0 a3 50 e6 c3 5b
       -37 -58 77 0 5 -60 -47 36 -82 -44 -16 -93 80 -26 -61 91
0000e0 03 4f b9 e7 ee b4 20 ef e1 07 fe fd b6 2c 2d 14
       3 79 -71 -25 -18 -76 32 -17 -31 7 -2 -3 -74 44 45 20
0000f0 eb c9 12 ed 27 e9 26 00 13 81 e2 1f ea e5 1e 28
       -21 -55 18 -19 39 -23 38 0 19 -127 -30 31 -22 -27 30 40

model/basenet.5.1_bn/FusedBatchNormV3;model/basenet.5.0_dconv/depthwise;model/yaw_0_sep_dconvbias/depthwise i1 [1, 3, 3, 64]
000000 ce e4 9c 6f d3 0e eb 03 a9 fe 01 3f bd 2b d9 15
       -50 -28 -100 111 -45 14 -21 3 -87 -2 1 63 -67 43 -39 21
000010 44 f3 e4 b7 27 0a c2 6e 31 db 02 5f b9 03 d5 1b
       68 -13 -28 -73 39 10 -62 110 49 -37 2 95 -71 3 -43 27
000020 13 02 00 0e 7f 3f 7f 08 d2 f5 0b f4 09 e5 fa 50
       19 2 0 14 127 63 127 8 -46 -11 11 -12 9 -27 -6 80
000030 d3 b9 07 4a 12 e9 f9 01 c2 f6 de f2 f3 ec 2a e1
       -45 -71 7 74 18 -23 -7 1 -62 -10 -34 -14 -13 -20 42 -31
000040 81 fe ff 7f dd b0 2e 33 a7 d7 0d ac 62 33 fa f5
       -127 -2 -1 127 -35 -80 46 51 -89 -41 13 -84 98 51 -6 -11
000050 71 0a 24 d4 f0 fc e9 21 04 62 10 3b ef f9 48 ad
       113 10 36 -44 -16 -4 -23 33 4 98 16 59 -17 -7 72 -83
000060 29 f3 d0 e5 7f 11 ee 04 09 ee fc ba 5e 00 e5 26
       41 -13 -48 -27 127 17 -18 4 9 -18 -4 -70 94 0 -27 38
000070 1d d5 ff aa 17 11 dc 5b 07 4a 7f 0b f5 da 38 da
       29 -43 -1 -86 23 17 -36 91 7 74 127 11 -11 -38 56 -38
000080 84 f0 81 e4 7f ed 13 f9 a8 e7 fc 7f 7f 16 f5 56
       -124 -16 -127 -28 127 -19 19 -7 -88 -25 -4 127 127 22 -11 86
000090 31 11 73 ed fa 0a ee 81 e5 ca 35 4a 14 00 d1 de
       49 17 115 -19 -6 10 -18 -127 -27 -54 53 74 20 0 -47 -34
0000a0 07 fd 03 0d 76 b4 6b d3 0c 0d 08 d9 01 f5 22 f6
       7 -3 3 13 118 -76 107 -45 12 13 8 -39 1 -11 34 -10
0000b0 19 c6 fb b1 ca 19 0b 2b e0 fa dd 7f 3a e6 fd ce
       25 -58 -5 -79 -54 25 11 43 -32 -6 -35 127 58 -26 -3 -50
0000c0 f0 f1 d2 ea 07 bb 1b 0d f7 07 06 15 06 34 bd 3a
       -16 -15 -46 -22 7 -69 27 13 -9 7 6 21 6 52 -67 58
0000d0 05 f1 b5 7f 53 fe eb fa df 45 35 c0 d8 f5 d0 49
       5 -15 -75 127 83 -2 -21 -6 -33 69 53 -64 -40 -11 -48 73
0000e0 ef 06 15 0a b4 1e 1f 11 f8 d8 fb f1 cd e4 f7 7f
       -17 6 21 10 -76 30 31 17 -8 -40 -5 -15 -51 -28 -9 127
0000f0 17 c5 25 4a 7f e3 7f 7f 6b e5 23 ed e1 cc cf fb
       23 -59 37 74 127 -29 127 127 107 -27 35 -19 -31 -52 -49 -5

model/basenet.5.3_conv/Conv2D i1 [64, 1, 1, 64]
000000 01 30 01 fd 12 df ea 28 df 0b 1b 14 0e 15 34 2d
       1 48 1 -3 18 -33 -22 40 -33 11 27 20 14 21 52 45
000010 81 07 f2 fd 2e 2f 0b 09 0b 07 06 20 52 db e4 22
       -127 7 -14 -3 46 47 11 9 11 7 6 32 82 -37 -28 34
000020 a8 07 c4 ec e5 c0 4f f7 28 07 0a 29 0f f6 0e eb
       -88 7 -60 -20 -27 -64 79 -9 40 7 10 41 15 -10 14 -21
000030 0a 0c 03 db e9 1a 00 e2 ec fd d0 02 0b 0c 0d 73
       10 12 3 -37 -23 26 0 -30 -20 -3 -48 2 11 12 13 115
000040 ee fc 01 fb 04 0c de 21 0e be e9 07 fc f7 01 ea
       -18 -4 1 -5 4 12 -34 33 14 -66 -23 7 -4 -9 1 -22
000050 05 ea 01 0a f4 37 09 16 0e fc 08 ec 13 56 f5 05
       5 -22 1 10 -12 55 9 22 14 -4 8 -20 19 86 -11 5
000060 2c 7f c5 e0 f4 08 fd 15 d3 23 66 07 10 e7 f6 e1
       44 127 -59 -32 -12 8 -3 21 -45 35 102 7 16 -25 -10 -31
000070 ef 16 d8 ff e3 28 f2 61 ee ec f7 d7 e4 15 d8 2a
       -17 22 -40 -1 -29 40 -14 97 -18 -20 -9 -41 -28 21 -40 42
000080 3a 2f e0 71 c2 1a 34 32 46 0f 41 5e 26 0e dc 4b
       58 47 -32 113 -62 26 52 50 70 15 65 94 38 14 -36 75
000090 be 1c 81 38 37 06 1e e4 10 3d ec 5f e9 fd d3 5d
       -66 28 -127 56 55 6 30 -28 16 61 -20 95 -23 -3 -45 93
0000a0 a4 bc 07 e1 0c af 31 b1 ef 3c df f6 df 19 03 ff
       -92 -68 7 -31 12 -81 49 -79 -17 60 -33 -10 -33 25 3 -1
0000b0 eb e0 38 13 bc 2b 1e 14 17 10 50 f0 e9 72 e4 14
       -21 -32 56 19 -68 43 30 20 23 16 80 -16 -23 114 -28 20
0000c0 cb 15 78 2e 4e d0 26 c7 b6 ea 03 04 e9 59 c7 d0
       -53 21 120 46 78 -48 38 -57 -74 -22 3 4 -23 89 -57 -48
0000d0 7f 28 c7 e9 f8 8d 16 2b f9 2f ba d1 e7 e2 c8 18
       127 40 -57 -23 -8 -115 22 43 -7 47 -70 -47 -25 -30 -56 24
0000e0 17 20 04 b0 2f e6 bd d5 13 d9 e3 ee ec f8 54 20
       23 32 4 -80 47 -26 -67 -43 19 -39 -29 -18 -20 -8 84 32
0000f0 22 dc c2 d2 e7 08 00 75 f4 13 28 1b 0a c4 b7 e5
       34 -36 -62 -46 -25 8 0 117 -12 19 40 27 10 -60 -73 -27

model/basenet.6.1_bn/FusedBatchNormV3;model/basenet.6.0_dconv/depthwise;model/yaw_0_sep_dconvbias/depthwise i1 [1, 3, 3, 64]
000000 17 02 cb b8 27 6e f7 46 08 25 13 f5 da 00 0d f3
       23 2 -53 -72 39 110 -9 70 8 37 19 -11 -38 0 13 -13
000010 19 02 ab dc d5 49 2c 9d d5 c7 f3 f9 f8 31 10 12
       25 2 -85 -36 -43 73 44 -99 -43 -57 -13 -7 -8 49 16 18
000020 1d ec ea 0f ff 05 0e dd fb 3d 97 3b 00 a9 ed 0c
       29 -20 -22 15 -1 5 14 -35 -5 61 -105 59 0 -87 -19 12
000030 23 fd d7 09 32 05 96 af ba ef 13 ff 18 33 0d 42
       35 -3 -41 9 50 5 -106 -81 -70 -17 19 -1 24 51 13 66
000040 11 ff 72 c2 24 4f fb 1b 2a 0c 3b be 03 7f 15 01
       17 -1 114 -62 36 79 -5 27 42 12 59 -66 3 127 21 1
000050 08 7f ee e5 f4 f7 0d c4 aa 34 ff ad f1 5f a5 12
       8 127 -18 -27 -12 -9 13 -60 -86 52 -1 -83 -15 95 -91 18
000060 3e d6 27 a5 fa 00 01 07 02 56 d2 34 19 d4 d4 13
       62 -42 39 -91 -6 0 1 7 2 86 -46 52 25 -44 -44 19
000070 18 ca ee 06 30 51 d4 b5 29 e0 f8 42 19 54 de 1e
       24 -54 -18 6 48 81 -44 -75 41 -32 -8 66 25 84 -34 30
000080 2e 05 7f d0 c6 29 1c 17 e8 29 6b ab 00 10 f4 e0
       46 5 127 -48 -58 41 28 23 -24 41 107 -85 0 16 -12 -32
000090 2f 34 a6 ca 26 eb ed 55 be 06 7f f2 fb f2 f1 11
       47 52 -90 -54 38 -21 -19 85 -66 6 127 -14 -5 -14 -15 17
0000a0 7f d5 31 2c eb f8 fb 17 f3 7f 98 13 fa ba f8 2b
       127 -43 49 44 -21 -8 -5 23 -13 127 -104 19 -6 -70 -8 43
0000b0 06 20 f0 e5 1a 46 c3 81 61 ef 04 15 f6 30 0d bd
       6 32 -16 -27 26 70 -61 -127 97 -17 4 21 -10 48 13 -67
0000c0 29 fb ae e7 36 4d 40 7f 0b 8e 61 e7 ec dd f8 11
       41 -5 -82 -25 54 77 64 127 11 -114 97 -25 -20 -35 -8 17
0000d0 ec ed 06 cd 62 6e 7f de fd 9e d5 e4 7f 60 7f 7f
       -20 -19 6 -51 98 110 127 -34 -3 -98 -43 -28 127 96 127 127
0000e0 66 5c 3d e6 f5 dc 1b e8 06 19 ef 32 17 ce 7f e1
       102 92 61 -26 -11 -36 27 -24 6 25 -17 50 23 -50 127 -31
0000f0 d4 dc 45 7f 1b 01 c0 b9 cc cf e5 e1 d8 50 ff 72
       -44 -36 69 127 27 1 -64 -71 -52 -49 -27 -31 -40 80 -1 114

model/basenet.6.3_conv/Conv2D i1 [64, 1, 1, 64]
000000 03 81 cd fd eb f2 ed 0d c0 dd ae 04 ea e3 16 d5
       3 -127 -51 -3 -21 -14 -19 13 -64 -35 -82 4 -22 -29 22 -43
000010 ec ef 15 0a f6 fd df 13 0f cf e6 03 0c d7 d9 de
       -20 -17 21 10 -10 -3 -33 19 15 -49 -26 3 12 -41 -39 -34
000020 05 d2 28 ea 10 f1 0e d1 ed ee 06 36 87 00 da e3
       5 -46 40 -22 16 -15 14 -47 -19 -18 6 54 -121 0 -38 -29
000030 e7 ef 01 ec e2 dc fb cd e4 25 fa e0 d2 a6 8d f7
       -25 -17 1 -20 -30 -36 -5 -51 -28 37 -6 -32 -46 -90 -115 -9
000040 0c 43 e6 f7 10 97 bd 2c e7 10 fc b0 fb 37 d4 0f
       12 67 -26 -9 16 -105 -67 44 -25 16 -4 -80 -5 55 -44 15
000050 9f f8 f3 c5 c5 2a 0a 33 fe e7 ed dc 2d f4 29 f0
       -97 -8 -13 -59 -59 42 10 51 -2 -25 -19 -36 45 -12 41 -16
000060 e7 c0 c6 df e7 f6 18 5a e4 c6 32 e8 cf e4 2c 2f
       -25 -64 -58 -33 -25 -10 24 90 -28 -58 50 -24 -49 -28 44 47
000070 7f d6 f9 01 e6 fd ca 35 15 38 2c a6 f9 ef ec cc
       127 -42 -7 1 -26 -3 -54 53 21 56 44 -90 -7 -17 -20 -52
000080 c8 05 05 32 0f c6 31 d9 1c 13 28 d8 3d ce 8b bd
       -56 5 5 50 15 -58 49 -39 28 19 40 -40 61 -50 -117 -67
000090 3c 48 cb ec 52 1a 3f eb d6 f9 d1 26 e2 5c 37 f2
       60 72 -53 -20 82 26 63 -21 -42 -7 -47 38 -30 92 55 -14
0000a0 3a ec c1 22 f8 2a ec 26 ea 3e c1 c6 e7 7f eb 2d
       58 -20 -63 34 -8 42 -20 38 -22 62 -63 -58 -25 127 -21 45
0000b0 1e d3 d7 08 03 fa bc 55 18 e0 16 04 f5 47 1e e5
       30 -45 -41 8 3 -6 -68 85 24 -32 22 4 -11 71 30 -27
0000c0 cc 62 e9 e8 22 fa 19 f0 01 e5 c8 14 18 10 00 08
       -52 98 -23 -24 34 -6 25 -16 1 -27 -56 20 24 16 0 8
0000d0 eb fe f5 27 ec f7 e6 f7 06 03 ee f2 ca be e1 fe
       -21 -2 -11 39 -20 -9 -26 -9 6 3 -18 -14 -54 -66 -31 -2
0000e0 fb d1 d4 fa f1 e0 10 f6 f3 da d2 41 f1 f7 db f4
       -5 -47 -44 -6 -15 -32 16 -10 -13 -38 -46 65 -15 -9 -37 -12
0000f0 f9 fc 0c 15 b7 ee 06 d1 e9 03 d0 ed e9 bf 81 e0
       -7 -4 12 21 -73 -18 6 -47 -23 3 -48 -19 -23 -65 -127 -32

model/basenet.7.1_bn/FusedBatchNormV3;model/basenet.7.0_dconv/depthwise;model/yaw_0_sep_dconvbias/depthwise i1 [1, 3, 3, 64]
000000 fa 29 4b 11 35 a0 f5 0d 4d b2 78 a0 ce 7f 5f 0c
       -6 41 75 17 53 -96 -11 13 77 -78 120 -96 -50 127 95 12
000010 5d 00 ff 08 f3 1b 27 bd 1e 25 0e 5f 0f 36 fc fe
       93 0 -1 8 -13 27 39 -67 30 37 14 95 15 54 -4 -2
000020 13 a6 2d 3d f4 c2 ee 01 07 cd 06 3a 48 53 12 8c
       19 -90 45 61 -12 -62 -18 1 7 -51 6 58 72 83 18 -116
000030 3e 6a a2 4e 4e 69 dd 17 6a 63 df 0c 20 ef d1 49
       62 106 -94 78 78 105 -35 23 106 99 -33 12 32 -17 -47 73
000040 0d 7f 68 d1 3d d2 18 d2 ec a5 6b 8e dd f8 7d ae
       13 127 104 -47 61 -46 24 -46 -20 -91 107 -114 -35 -8 125 -82
000050 7f eb ef e5 a0 50 b8 81 1d 7b 38 1a d4 ff a9 1d
       127 -21 -17 -27 -96 80 -72 -127 29 123 56 26 -44 -1 -87 29
000060 3f 3e 25 7f 39 f9 ef 0f eb 14 25 4f 35 7f 51 c5
       63 62 37 127 57 -7 -17 15 -21 20 37 79 53 127 81 -59
000070 44 7f 81 e9 6c fc e1 72 95 08 92 7f fd 79 c7 37
       68 127 -127 -23 108 -4 -31 114 -107 8 -110 127 -3 121 -57 55
000080 f9 78 7f 25 91 c4 7f 68 e4 99 36 cb db ca 7f da
       -7 120 127 37 -111 -60 127 104 -28 -103 54 -53 -37 -54 127 -38
000090 59 81 90 fd 21 7f 0d c8 81 53 00 a7 0f f9 18 54
       89 -127 -112 -3 33 127 13 -56 -127 83 0 -89 15 -7 24 84
0000a0 e8 81 11 ff 03 cf ef 1c 20 6c b7 ef bd 77 1c b1
       -24 -127 17 -1 3 -49 -17 28 32 108 -73 -17 -67 119 28 -79
0000b0 f6 e1 cf 15 55 42 fe e3 ff fc d2 55 20 1f be d6
       -10 -31 -49 21 85 66 -2 -29 -1 -4 -46 85 32 31 -66 -42
0000c0 0b 0f ec 10 b3 81 11 e8 7f 02 7d 81 b1 3c 9c 31
       11 15 -20 16 -77 -127 17 -24 127 2 125 -127 -79 60 -100 49
0000d0 01 fa d7 32 12 c7 2f c3 16 df f1 5c c7 23 a3 e4
       1 -6 -41 50 18 -57 47 -61 22 -33 -15 92 -57 35 -93 -28
0000e0 00 d9 49 f9 dc 81 f2 0d 19 d5 ec 56 17 18 e3 e2
       0 -39 73 -7 -36 -127 -14 13 25 -43 -20 86 23 24 -29 -30
0000f0 79 2a 16 65 3b 7f 7f 1a 7f 6a c1 ff fe d2 17 7f
       121 42 22 101 59 127 127 26 127 106 -63 -1 -2 -46 23 127

model/basenet.7.3_conv/Conv2D i1 [64, 1, 1, 64]
000000 f2 f6 c4 06 03 c7 04 ff fd ef f8 16 02 f8 c7 81
       -14 -10 -60 6 3 -57 4 -1 -3 -17 -8 22 2 -8 -57 -127
000010 d6 17 db eb da 00 ff 04 c2 ee e7 ee f5 03 f2 fe
       -42 23 -37 -21 -38 0 -1 4 -62 -18 -25 -18 -11 3 -14 -2
000020 f8 0a f6 0a 04 04 0c f5 f4 11 c4 f4 01 f4 f8 1a
       -8 10 -10 10 4 4 12 -11 -12 17 -60 -12 1 -12 -8 26
000030 15 07 00 f3 fa 16 f1 f7 e5 be 07 03 fc 04 09 fd
       21 7 0 -13 -6 22 -15 -9 -27 -66 7 3 -4 4 9 -3
000040 3c 2c 4a 32 20 b0 d6 06 32 fa 11 f9 f6 ba 1b 60
       60 44 74 50 32 -80 -42 6 50 -6 17 -7 -10 -70 27 96
000050 fe cb 28 eb 12 0d e8 8e 48 3f eb f1 94 f0 4e 35
       -2 -53 40 -21 18 13 -24 -114 72 63 -21 -15 -108 -16 78 53
000060 e0 e3 0f f0 fe 11 2a 6b b1 fe cf 20 db ab 16 ca
       -32 -29 15 -16 -2 17 42 107 -79 -2 -49 32 -37 -85 22 -54
000070 2e 39 cb 1d 03 05 db fc eb e9 34 0e 7f eb c8 cc
       46 57 -53 29 3 5 -37 -4 -21 -23 52 14 127 -21 -56 -52
000080 06 f6 eb f7 fb c0 f5 d2 93 ea 4f 60 ae 34 f1 c8
       6 -10 -21 -9 -5 -64 -11 -46 -109 -22 79 96 -82 52 -15 -56
000090 ac 81 d1 e6 fa 1d c2 b3 35 05 cd 50 f2 1f 9f 13
       -84 -127 -47 -26 -6 29 -62 -77 53 5 -51 80 -14 31 -97 19
0000a0 e8 4b ea f2 f3 d6 da da cd fc ed 01 06 37 9f dd
       -24 75 -22 -14 -13 -42 -38 -38 -51 -4 -19 1 6 55 -97 -35
0000b0 b8 03 10 c8 0a fc ee 0e e3 db fa 15 d4 1c ce e5
       -72 3 16 -56 10 -4 -18 14 -29 -37 -6 21 -44 28 -50 -27
0000c0 36 25 c4 f3 ee a3 e2 0e 1a f7 16 16 ff 28 db cd
       54 37 -60 -13 -18 -93 -30 14 26 -9 22 22 -1 40 -37 -51
0000d0 d0 fd 31 cc bc f2 01 fb a8 18 c2 0c f3 0e b2 e0
       -48 -3 49 -52 -68 -14 1 -5 -88 24 -62 12 -13 14 -78 -32
0000e0 00 13 1c f7 07 40 e9 d0 f9 1d 07 ec c5 0b 17 ec
       0 19 28 -9 7 64 -23 -48 -7 29 7 -20 -59 11 23 -20
0000f0 e3 19 d3 03 ca 1d c4 87 da f1 e4 fb 10 2d f8 7f
       -29 25 -45 3 -54 29 -60 -121 -38 -15 -28 -5 16 45 -8 127

model/basenet.8.1_bn/FusedBatchNormV3;model/basenet.8.0_dconv/depthwise;model/yaw_0_sep_dconvbias/depthwise i1 [1, 3, 3, 64]
000000 eb 10 7f cb fd 0f 6f 81 cd 7e ac 0b bd e3 b6 3b
       -21 16 127 -53 -3 15 111 -127 -51 126 -84 11 -67 -29 -74 59
000010 02 8c 17 f8 46 f0 e5 01 3a 23 b4 9d f0 7f 49 59
       2 -116 23 -8 70 -16 -27 1 58 35 -76 -99 -16 127 73 89
000020 a8 db 0d 1c cd 7f 15 19 e0 bc ce e3 01 51 4d 45
       -88 -37 13 28 -51 127 21 25 -32 -68 -50 -29 1 81 77 69
000030 17 c3 02 7f 55 0f f1 a7 a0 39 bd 85 02 7f e6 9c
       23 -61 2 127 85 15 -15 -89 -96 57 -67 -123 2 127 -26 -100
000040 42 37 07 2f 15 1a ad fb 52 7f b2 58 2f d6 b6 47
       66 55 7 47 21 26 -83 -5 82 127 -78 88 47 -42 -74 71
000050 47 81 12 7f 7f 24 a9 bd 28 dd e9 81 4b 66 7f d0
       71 -127 18 127 127 36 -87 -67 40 -35 -23 -127 75 102 127 -48
000060 f9 1b b2 33 a9 f2 8c 68 e6 09 1e 7f 4e 1e 5e 68
       -7 27 -78 51 -87 -14 -116 104 -26 9 30 127 78 30 94 104
000070 cd c0 26 05 7f 7f ec 3e 12 7f fd e1 44 43 d4 81
       -51 -64 38 5 127 127 -20 62 18 127 -3 -31 68 67 -44 -127
000080 7f 55 ed fd d3 e9 a7 03 a4 68 ed 7f 33 81 a6 36
       127 85 -19 -3 -45 -23 -89 3 -92 104 -19 127 51 -127 -90 54
000090 2d 95 02 56 41 f0 ec 37 31 e4 7f ad f0 0c 12 ca
       45 -107 2 86 65 -16 -20 55 49 -28 127 -83 -16 12 18 -54
0000a0 16 2a e3 41 f7 0b a8 7f 81 7f 18 3a 5f e0 7f dd
       22 42 -29 65 -9 11 -88 127 -127 127 24 58 95 -32 127 -35
0000b0 db 58 03 d6 47 75 12 72 0c 70 7f 2a 26 29 10 95
       -37 88 3 -42 71 117 18 114 12 112 127 42 38 41 16 -107
0000c0 d4 7f 3b 23 d1 27 44 ee aa d5 fd 27 9b f1 fb 7f
       -44 127 59 35 -47 39 68 -18 -86 -43 -3 39 -101 -15 -5 127
0000d0 4f e3 7f 18 31 3a 25 62 27 50 b7 f9 2a 7d 76 7f
       79 -29 127 24 49 58 37 98 39 80 -73 -7 42 125 118 127
0000e0 d2 e7 6c 7f 81 e9 7f ed a9 b3 bd c3 49 7f c6 7f
       -46 -25 108 127 -127 -23 127 -19 -87 -77 -67 -61 73 127 -58 127
0000f0 27 cb 42 07 e3 dd e3 f2 b3 34 e5 81 3b e9 f0 99
       39 -53 66 7 -29 -35 -29 -14 -77 52 -27 -127 59 -23 -16 -103

model/basenet.8.3_conv/Conv2D i1 [128, 1, 1, 64]
000000 19 a8 29 06 19 1a d5 de d3 d5 2c f2 30 fb 22 2f
       25 -88 41 6 25 26 -43 -34 -45 -43 44 -14 48 -5 34 47
000010 94 14 e6 7f 21 12 f9 f9 53 f1 fd de da 0c f6 1f
       -108 20 -26 127 33 18 -7 -7 83 -15 -3 -34 -38 12 -10 31
000020 d8 fc 12 fb 1e d6 10 13 25 e6 47 0d fc 19 06 35
       -40 -4 18 -5 30 -42 16 19 37 -26 71 13 -4 25 6 53
000030 34 65 b2 59 0a ee 15 c7 f5 3e ed fc f4 10 e8 e3
       52 101 -78 89 10 -18 21 -57 -11 62 -19 -4 -12 16 -24 -29
000040 ee 04 3f ed 1f 67 05 d1 d3 00 dd f9 f2 ec 26 e8
       -18 4 63 -19 31 103 5 -47 -45 0 -35 -7 -14 -20 38 -24
000050 2c e8 03 3d 02 0f fa ef 3e f2 f5 f5 ec f5 2b e6
       44 -24 3 61 2 15 -6 -17 62 -14 -11 -11 -20 -11 43 -26
000060 fb 0f 09 81 ee 15 f2 0b f5 09 e0 44 6f e2 f7 f3
       -5 15 9 -127 -18 21 -14 11 -11 9 -32 68 111 -30 -9 -13
000070 1d 12 f4 fd e2 ea e1 fd f9 e8 03 25 f5 24 e0 03
       29 18 -12 -3 -30 -22 -31 -3 -7 -24 3 37 -11 36 -32 3
000080 fe f9 fc f7 07 e4 0a e4 e5 fb 10 23 f6 12 04 c9
       -2 -7 -4 -9 7 -28 10 -28 -27 -5 16 35 -10 18 4 -55
000090 f6 19 f4 e9 f3 81 2c fa 29 e9 ea f8 21 04 fc 08
       -10 25 -12 -23 -13 -127 44 -6 41 -23 -22 -8 33 4 -4 8
0000a0 fd 09 fe 00 02 f0 12 13 03 fe f8 11 03 e5 f6 02
       -3 9 -2 0 2 -16 18 19 3 -2 -8 17 3 -27 -10 2
0000b0 30 ff e3 0b 19 fa 14 e6 e8 07 f5 f9 0a f3 07 f9
       48 -1 -29 11 25 -6 20 -26 -24 7 -11 -7 10 -13 7 -7
0000c0 02 16 44 fd f0 df de 0a f6 f5 06 1a c1 e4 20 ec
       2 22 68 -3 -16 -33 -34 10 -10 -11 6 26 -63 -28 32 -20
0000d0 f8 ff a4 f8 7f ef 31 f1 24 f3 f5 0c d2 31 35 05
       -8 -1 -92 -8 127 -17 49 -15 36 -13 -11 12 -46 49 53 5
0000e0 0c ae 00 e7 de 47 c0 35 e9 e3 15 08 ce 03 bb de
       12 -82 0 -25 -34 71 -64 53 -23 -29 21 8 -50 3 -69 -34
0000f0 ce 1e 21 34 eb 6c ec fb c1 48 a2 ea 11 e3 f4 24
       -50 30 33 52 -21 108 -20 -5 -63 72 -94 -22 17 -29 -12 36

model/basenet.9.1_bn/FusedBatchNormV3;model/basenet.9.0_dconv/depthwise;model/yaw_1_sep_dconvbias/depthwise i1 [1, 3, 3, 128]
000000 7f d6 f8 d2 7f 45 6e eb 7f f7 d6 38 4d fc c7 21
       127 -42 -8 -46 127 69 110 -21 127 -9 -42 56 77 -4 -57 33
000010 b7 3f 11 2f b3 de e6 eb 6d 6d 67 50 dc f8 67 b8
       -73 63 17 47 -77 -34 -26 -21 109 109 103 80 -36 -8 103 -72
000020 e1 5c aa a7 b9 10 c5 d3 cc fe 9e cf 34 5a d4 67
       -31 92 -86 -89 -71 16 -59 -45 -52 -2 -98 -49 52 90 -44 103
000030 de df c5 af b5 fa 12 de ea 0c 99 f0 e6 27 62 bd
       -34 -33 -59 -81 -75 -6 18 -34 -22 12 -103 -16 -26 39 98 -67
000040 f1 0b 62 b8 55 e2 39 f2 d5 e5 5b eb 59 b0 f2 e3
       -15 11 98 -72 85 -30 57 -14 -43 -27 91 -21 89 -80 -14 -29
000050 a6 1a bb 28 ac 2d 81 e2 7f ea 7a 83 41 d2 4d 4e
       -90 26 -69 40 -84 45 -127 -30 127 -22 122 -125 65 -46 77 78
000060 d4 a8 99 4b 0e 51 fe 52 ee 07 53 2d 8a d0 7f 9b
       -44 -88 -103 75 14 81 -2 82 -18 7 83 45 -118 -48 127 -101
000070 eb 2c 1e 20 e8 de 54 c5 7f 09 2a a9 47 5c 17 d3
       -21 44 30 32 -24 -34 84 -59 127 9 42 -87 71 92 23 -45
000080 07 9e 7f cc 7d 3a 4d db d2 cb 20 31 ca b3 81 06
       7 -98 127 -52 125 58 77 -37 -46 -53 32 49 -54 -77 -127 6
000090 c5 2f ce 7f d5 2b 17 b8 2b 98 4c 0b be e3 d6 26
       -59 47 -50 127 -43 43 23 -72 43 -104 76 11 -66 -29 -42 38
0000a0 8d c7 d6 c5 81 5f d6 6f 29 27 a4 56 45 cc fc d7
       -115 -57 -42 -59 -127 95 -42 111 41 39 -92 86 69 -52 -4 -41
0000b0 85 ec f8 a3 24 4f a8 5b c4 d2 3c ca de 6e 27 e5
       -123 -20 -8 -93 36 79 -88 91 -60 -46 60 -54 -34 110 39 -27
0000c0 bd 32 7f 42 7f 1a 22 49 e8 dc 13 c2 03 81 29 20
       -67 50 127 66 127 26 34 73 -24 -36 19 -62 3 -127 41 32
0000d0 8e 33 a2 dc 0b ee d4 6b 7d d6 44 b5 fd e1 f0 f1
       -114 51 -94 -36 11 -18 -44 107 125 -42 68 -75 -3 -31 -16 -15
0000e0 98 1f 99 7f 7f d7 7f 7f 52 f1 7f 26 f3 14 2f 0e
       -104 31 -103 127 127 -41 127 127 82 -15 127 38 -13 20 47 14
0000f0 f0 7f 81 7f f9 28 94 af ef 1b 30 c2 54 fb 81 51
       -16 127 -127 127 -7 40 -108 -81 -17 27 48 -62 84 -5 -127 81

model/basenet.9.3_conv/Conv2D i1 [128, 1, 1, 128]
000000 42 f6 8e df 06 c1 2b d8 03 f1 0e 1f 2c 4d e1 f3
       66 -10 -114 -33 6 -63 43 -40 3 -15 14 31 44 77 -31 -13
000010 27 e4 13 cf f0 33 03 37 31 c6 81 b6 eb 58 e7 e9
       39 -28 19 -49 -16 51 3 55 49 -58 -127 -74 -21 88 -25 -23
000020 d0 ff 0f f4 f9 04 1e fc e8 02 06 c1 d2 34 a5 f7
       -48 -1 15 -12 -7 4 30 -4 -24 2 6 -63 -46 52 -91 -9
000030 e1 d5 b8 c4 df f4 0b 2c eb e1 e3 0a 1a dc f4 ea
       -31 -43 -72 -60 -33 -12 11 44 -21 -31 -29 10 26 -36 -12 -22
000040 ee e9 37 32 b2 0e e9 0c 25 fd bb 2a e7 e5 f6 12
       -18 -23 55 50 -78 14 -23 12 37 -3 -69 42 -25 -27 -10 18
000050 ec f8 f4 a5 f1 26 03 ee ee ca 09 f6 e7 d1 ff 2f
       -20 -8 -12 -91 -15 38 3 -18 -18 -54 9 -10 -25 -47 -1 47
000060 b9 18 24 36 15 d6 bc a3 0c 1a 10 23 9f bc b3 41
       -71 24 36 54 21 -42 -68 -93 12 26 16 35 -97 -68 -77 65
000070 df bf d6 b4 e8 06 fa 34 95 c2 08 1e 0d d0 e7 25
       -33 -65 -42 -76 -24 6 -6 52 -107 -62 8 30 13 -48 -25 37
000080 3f 3d eb 15 18 22 81 ea e2 90 cf 3c d9 29 0a fd
       63 61 -21 21 24 34 -127 -22 -30 -112 -49 60 -39 41 10 -3
000090 e2 fb 0f 2a 10 13 0e 1f d3 25 e1 17 3f c7 1d 32
       -30 -5 15 42 16 19 14 31 -45 37 -31 23 63 -57 29 50
0000a0 0b 40 06 16 1b 0f 09 b2 ec 07 0b d6 bd fe fe f6
       11 64 6 22 27 15 9 -78 -20 7 11 -42 -67 -2 -2 -10
0000b0 3e 09 dd fe 0e 00 12 e2 17 10 dd ba 0d e3 c6 f8
       62 9 -35 -2 14 0 18 -30 23 16 -35 -70 13 -29 -58 -8
0000c0 ff 2a f5 c7 de fe 9f 32 29 1f ce 3a e9 0a ef 0a
       -1 42 -11 -57 -34 -2 -97 50 41 31 -50 58 -23 10 -17 10
0000d0 c1 f6 12 8c 04 4c e5 d4 1d cd dc 9e ef f5 d8 2c
       -63 -10 18 -116 4 76 -27 -44 29 -51 -36 -98 -17 -11 -40 44
0000e0 03 e2 36 15 fa 22 18 c1 28 d8 19 11 1b ce d8 28
       3 -30 54 21 -6 34 24 -63 40 -40 25 17 27 -50 -40 40
0000f0 bd ff b1 74 f0 d9 33 f1 29 bb fe d2 2a d4 54 c3
       -67 -1 -79 116 -16 -39 51 -15 41 -69 -2 -46 42 -44 84 -61

model/basenet.10.1_bn/FusedBatchNormV3;model/basenet.10.0_dconv/depthwise;model/yaw_1_sep_dconvbias/depthwise i1 [1, 3, 3, 128]
000000 63 c0 51 9c 23 d7 14 81 a9 59 11 bd 82 f7 d8 32
       99 -64 81 -100 35 -41 20 -127 -87 89 17 -67 -126 -9 -40 50
000010 49 53 18 1b c4 e5 88 e8 49 d0 04 6e 32 0f d6 eb
       73 83 24 27 -60 -27 -120 -24 73 -48 4 110 50 15 -42 -21
000020 33 cd 4a ce af 41 d3 e4 bb d6 a4 81 7f 1e 29 47
       51 -51 74 -50 -81 65 -45 -28 -69 -42 -92 -127 127 30 41 71
000030 f3 26 54 47 cf 52 12 cc 22 26 7e ea 3f b5 6b 10
       -13 38 84 71 -49 82 18 -52 34 38 126 -22 63 -75 107 16
000040 af d9 01 db b7 ed 81 11 c1 a6 23 1d fe d9 68 97
       -81 -39 1 -37 -73 -19 -127 17 -63 -90 35 29 -2 -39 104 -105
000050 5b 06 d5 df 0c 33 7f d7 2b 16 7d 14 3a bd c6 81
       91 6 -43 -33 12 51 127 -41 43 22 125 20 58 -67 -58 -127
000060 20 fc 0c 5b 65 6f a9 17 7f dd f9 7f 97 eb 99 f3
       32 -4 12 91 101 111 -87 23 127 -35 -7 127 -105 -21 -103 -13
000070 6c af db c3 7f c1 52 dc 6f 94 31 00 47 2b f8 db
       108 -81 -37 -61 127 -63 82 -36 111 -108 49 0 71 43 -8 -37
000080 5d 3c 0b 81 29 02 1f b6 b6 21 7c e5 a0 c6 4a 81
       93 60 11 -127 41 2 31 -74 -74 33 124 -27 -96 -58 74 -127
000090 a4 6b 9c 2b 81 07 77 39 24 8c 81 ec 81 f2 4b 7c
       -92 107 -100 43 -127 7 119 57 36 -116 -127 -20 -127 -14 75 124
0000a0 08 fc 43 c5 d9 7f 7f f6 e9 a3 66 fe 7e 0f fe 7f
       8 -4 67 -59 -39 127 127 -10 -23 -93 102 -2 126 15 -2 127
0000b0 d1 46 1b f6 7f 52 a7 d9 02 78 71 52 24 9f d3 e2
       -47 70 27 -10 127 82 -89 -39 2 120 113 82 36 -97 -45 -30
0000c0 90 15 6c 20 b1 cc ba e9 5c f0 fb 34 98 fc 7f f1
       -112 21 108 32 -79 -52 -70 -23 92 -16 -5 52 -104 -4 127 -15
0000d0 26 5d b8 91 f2 66 61 ae 17 7f af 55 76 7f 81 0f
       38 93 -72 -111 -14 102 97 -82 23 127 -81 85 118 127 -127 15
0000e0 2a 1a c5 2a 24 df 7f 33 14 b4 dc b0 81 9f 62 86
       42 26 -59 42 36 -33 127 51 20 -76 -36 -80 -127 -97 98 -122
0000f0 54 ac 9f 5b 59 60 7f f4 b7 b7 6b df 17 30 f7 1a
       84 -84 -97 91 89 96 127 -12 -73 -73 107 -33 23 48 -9 26

model/basenet.10.3_conv/Conv2D i1 [128, 1, 1, 128]
000000 ee 0b 10 18 d0 0c 33 fd ff 3f 40 14 be 4d 24 ee
       -18 11 16 24 -48 12 51 -3 -1 63 64 20 -66 77 36 -18
000010 f8 3d 4f 16 22 5c cf 13 ac fe 0d 35 e0 2d d6 13
       -8 61 79 22 34 92 -49 19 -84 -2 13 53 -32 45 -42 19
000020 fa d6 f8 11 df 2a e2 1e 0d 1c 05 f5 0b d4 02 7f
       -6 -42 -8 17 -33 42 -30 30 13 28 5 -11 11 -44 2 127
000030 e5 d2 13 0a 7b 44 24 20 0d 20 14 fe 0e 1c fb e3
       -27 -46 19 10 123 68 36 32 13 32 20 -2 14 28 -5 -29
000040 db cf 0f 1e 1a 1d 4c 08 f9 07 2b 0c 28 d0 1a fc
       -37 -49 15 30 26 29 76 8 -7 7 43 12 40 -48 26 -4
000050 25 e8 28 e5 7a fd 25 07 fd 55 04 e1 ce c4 fa e6
       37 -24 40 -27 122 -3 37 7 -3 85 4 -31 -50 -60 -6 -26
000060 45 08 8b f4 4b 3f d7 e6 c5 3f 47 e3 35 20 01 1c
       69 8 -117 -12 75 63 -41 -26 -59 63 71 -29 53 32 1 28
000070 28 2b 04 dd 2e f1 fb 1a d9 42 7e 1b da 66 15 e6
       40 43 4 -35 46 -15 -5 26 -39 66 126 27 -38 102 21 -26
000080 67 f4 f6 f6 11 ee 87 f4 07 1d 06 f8 0a e3 15 ca
       103 -12 -10 -10 17 -18 -121 -12 7 29 6 -8 10 -29 21 -54
000090 0e ef c4 d1 fe f5 1e dd e8 ec 02 95 09 2f 45 db
       14 -17 -60 -47 -2 -11 30 -35 -24 -20 2 -107 9 47 69 -37
0000a0 ed 1f 0a 0c 9e 4c 9d f1 d8 48 f8 ac 0c e6 2f ad
       -19 31 10 12 -98 76 -99 -15 -40 72 -8 -84 12 -26 47 -83
0000b0 11 3a 72 e9 d2 d1 34 bf 08 f5 aa 0b 28 ec ed c0
       17 58 114 -23 -46 -47 52 -65 8 -11 -86 11 40 -20 -19 -64
0000c0 01 d5 f5 f6 26 22 bb 04 b6 f0 01 79 d0 5a b6 ef
       1 -43 -11 -10 38 34 -69 4 -74 -16 1 121 -48 90 -74 -17
0000d0 18 1d d2 03 df 36 c7 39 49 b1 de f0 f2 81 3b de
       24 29 -46 3 -33 54 -57 57 73 -79 -34 -16 -14 -127 59 -34
0000e0 f8 de 83 c6 b5 dc 30 c1 1c 2f cc 22 c0 0c fa d2
       -8 -34 -125 -58 -75 -36 48 -63 28 47 -52 34 -64 12 -6 -46
0000f0 93 16 64 3d 01 42 d3 72 28 0b 27 cf d5 f9 3a 1c
       -109 22 100 61 1 66 -45 114 40 11 39 -49 -43 -7 58 28

model/basenet.11.1_bn/FusedBatchNormV3;model/basenet.11.0_dconv/depthwise;model/yaw_1_sep_dconvbias/depthwise i1 [1, 3, 3, 128]
000000 d7 64 73 81 29 cf 8e a7 e8 1d fd c3 4e db cf d0
       -41 100 115 -127 41 -49 -114 -89 -24 29 -3 -61 78 -37 -49 -48
000010 73 e5 b9 0c 6a 13 ec db 7f 21 3d fb e3 6f cd 1c
       115 -27 -71 12 106 19 -20 -37 127 33 61 -5 -29 111 -51 28
000020 71 7f a1 97 53 52 f0 aa 6d c4 0e 36 41 81 33 7f
       113 127 -95 -105 83 82 -16 -86 109 -60 14 54 65 -127 51 127
000030 9c eb 24 f3 6c 07 f2 81 2f 20 a7 81 01 d6 c3 ca
       -100 -21 36 -13 108 7 -14 -127 47 32 -89 -127 1 -42 -61 -54
000040 7f de 09 b2 36 a8 81 40 3f f2 b1 8e aa 35 5f f9
       127 -34 9 -78 54 -88 -127 64 63 -14 -79 -114 -86 53 95 -7
000050 ff 1b 13 d1 65 82 dc a5 c6 b8 b5 fe 43 14 5a c7
       -1 27 19 -47 101 -126 -36 -91 -58 -72 -75 -2 67 20 90 -57
000060 f3 c5 a8 15 4c 2f ec 7f 15 7f 34 1b f6 25 21 c4
       -13 -59 -88 21 76 47 -20 127 21 127 52 27 -10 37 33 -60
000070 79 85 d6 a9 e1 29 83 d8 aa 1d f1 97 9f fc 31 ac
       121 -123 -42 -87 -31 41 -125 -40 -86 29 -15 -105 -97 -4 49 -84
000080 be 29 cf eb 1b 7f 86 b6 f4 7f 16 7f d8 4f a1 eb
       -66 41 -49 -21 27 127 -122 -74 -12 127 22 127 -40 79 -95 -21
000090 dd 82 81 da fc e3 95 b2 7b dd 4f 40 f5 7f f3 db
       -35 -126 -127 -38 -4 -29 -107 -78 123 -35 79 64 -11 127 -13 -37
0000a0 49 ea af dc b2 7f 0b 5a b9 19 e8 7f 81 ee 3a a2
       73 -22 -81 -36 -78 127 11 90 -71 25 -24 127 -127 -18 58 -94
0000b0 35 63 56 8d d4 6d 8c d6 79 7f fd 27 9d ef 49 de
       53 99 86 -115 -44 109 -116 -42 121 127 -3 39 -99 -17 73 -34
0000c0 c1 6d 2a 48 bd 0b a4 59 d4 7c a3 81 ff 00 bc 70
       -63 109 42 72 -67 11 -92 89 -44 124 -93 -127 -1 0 -68 112
0000d0 7a 8e f9 93 0e 7f d5 e5 ef b7 00 de 52 cc 28 e3
       122 -114 -7 -109 14 127 -43 -27 -17 -73 0 -34 82 -52 40 -29
0000e0 0e b4 bc 40 81 24 c6 14 56 ab 49 58 7f ca d1 0c
       14 -76 -68 64 -127 36 -58 20 86 -85 73 88 127 -54 -47 12
0000f0 87 51 30 5b 48 29 81 a6 b9 12 4e 5c 7b 0b 70 bd
       -121 81 48 91 72 41 -127 -90 -71 18 78 92 123 11 112 -67

model/basenet.11.3_conv/Conv2D i1 [256, 1, 1, 128]
000000 5b 13 3a 4e 25 96 34 e8 d2 de 1a d1 33 15 dd fd
       91 19 58 78 37 -106 52 -24 -46 -34 26 -47 51 21 -35 -3
000010 d9 46 20 51 cc ae ea d7 4b 29 7f 40 06 d6 32 fc
       -39 70 32 81 -52 -82 -22 -41 75 41 127 64 6 -42 50 -4
000020 ec 17 f5 09 3b 05 b8 c7 0a f0 e2 ad ee d5 f7 11
       -20 23 -11 9 59 5 -72 -57 10 -16 -30 -83 -18 -43 -9 17
000030 0d f9 ce 47 ba e0 eb 01 e7 76 e8 12 cc 05 3b e9
       13 -7 -50 71 -70 -32 -21 1 -25 118 -24 18 -52 5 59 -23
000040 bb 26 2a ce ce 15 0f 45 e2 51 e0 dd 99 0e ea 26
       -69 38 42 -50 -50 21 15 69 -30 81 -32 -35 -103 14 -22 38
000050 ef 1d 07 dc e5 31 e4 36 ee c1 23 f7 24 20 27 32
       -17 29 7 -36 -27 49 -28 54 -18 -63 35 -9 36 32 39 50
000060 48 f7 03 1d db 7e e4 54 e1 de e2 65 5c fb f2 48
       72 -9 3 29 -37 126 -28 84 -31 -34 -30 101 92 -5 -14 72
000070 e7 fc d0 d9 1b db 2c f3 0d 36 1e 22 39 1d b3 ea
       -25 -4 -48 -39 27 -37 44 -13 13 54 30 34 57 29 -77 -22
000080 f5 d6 e2 e6 fe 0b e6 10 e6 f1 b6 04 ff 03 0e f8
       -11 -42 -30 -26 -2 11 -26 16 -26 -15 -74 4 -1 3 14 -8
000090 fb 30 13 0c f4 fd ce 39 4c e8 4c 36 24 7b c9 21
       -5 48 19 12 -12 -3 -50 57 76 -24 76 54 36 123 -55 33
0000a0 3f 20 00 e9 cd b4 a9 2a 04 ed 1c e3 cf dd 1d d7
       63 32 0 -23 -51 -76 -87 42 4 -19 28 -29 -49 -35 29 -41
0000b0 f3 fe cc f6 f0 ea 02 fd ec d3 cf e7 d3 e3 af dd
       -13 -2 -52 -10 -16 -22 2 -3 -20 -45 -49 -25 -45 -29 -81 -35
0000c0 fd 26 81 a0 1b cb cf 0e cd ef 01 03 f3 c3 f4 bd
       -3 38 -127 -96 27 -53 -49 14 -51 -17 1 3 -13 -61 -12 -67
0000d0 e1 2c 3f 0b eb ce cf 06 d8 d9 f9 16 10 c8 e8 37
       -31 44 63 11 -21 -50 -49 6 -40 -39 -7 22 16 -56 -24 55
0000e0 7b d8 e1 c5 fb 01 e5 1d 3c fe 56 ff 1b b9 e6 e1
       123 -40 -31 -59 -5 1 -27 29 60 -2 86 -1 27 -71 -26 -31
0000f0 f2 45 bb 1c a3 4a a8 da ca c6 c7 d6 fc c7 ed ec
       -14 69 -69 28 -93 74 -88 -38 -54 -58 -57 -42 -4 -57 -19 -20

model/basenet.12.1_bn/FusedBatchNormV3;model/basenet.12.0_dconv/depthwise;model/yaw_2_sep_dconvbias/depthwise i1 [1, 3, 3, 256]
000000 a3 e5 69 ff 2b 49 b1 1c a7 f5 08 68 89 bc 9b 16
       -93 -27 105 -1 43 73 -79 28 -89 -11 8 104 -119 -68 -101 22
000010 81 17 ef 3f a3 10 e6 b3 e9 2d d2 65 c5 6b 8f 86
       -127 23 -17 63 -93 16 -26 -77 -23 45 -46 101 -59 107 -113 -122
000020 6d 41 6e af fa 15 60 e4 2b 26 58 d9 02 bc f7 e1
       109 65 110 -81 -6 21 96 -28 43 38 88 -39 2 -68 -9 -31
000030 1f d1 06 24 d2 01 07 f4 7f 9d 20 17 cc 68 f0 9e
       31 -47 6 36 -46 1 7 -12 127 -99 32 23 -52 104 -16 -98
000040 ff 00 a2 0f d6 50 41 57 5c e2 84 81 1a 61 f0 7f
       -1 0 -94 15 -42 80 65 87 92 -30 -124 -127 26 97 -16 127
000050 37 81 c5 4e 24 61 ea a8 b6 d5 83 db 33 ab c5 eb
       55 -127 -59 78 36 97 -22 -88 -74 -43 -125 -37 51 -85 -59 -21
000060 84 41 3f c8 c4 1e e4 88 44 14 2d fc e3 2e f2 a6
       -124 65 63 -56 -60 30 -28 -120 68 20 45 -4 -29 46 -14 -90
000070 ed 0b 56 8f 2d 5b 35 4a 24 4a ad 4b b0 b7 20 3d
       -19 11 86 -113 45 91 53 74 36 74 -83 75 -80 -73 32 61
000080 c4 00 e5 81 43 f6 f9 f0 84 49 38 2a e1 0a 59 2d
       -60 0 -27 -127 67 -10 -7 -16 -124 73 56 42 -31 10 89 45
000090 cd 12 e4 ac c3 73 49 fb ca 5f af a8 35 1f 21 b5
       -51 18 -28 -84 -61 115 73 -5 -54 95 -81 -88 53 31 33 -75
0000a0 d1 c1 4d 97 36 38 f4 02 a8 ef 20 6d 51 d0 82 2f
       -47 -63 77 -105 54 56 -12 2 -88 -17 32 109 81 -48 -126 47
0000b0 86 d5 81 34 2c ab ee 94 bb 17 aa 27 46 96 91 6d
       -122 -43 -127 52 44 -85 -18 -108 -69 23 -86 39 70 -106 -111 109
0000c0 86 b7 5a 7f cb d2 39 ce 81 55 20 c0 7d 4e 0f 14
       -122 -73 90 127 -53 -46 57 -50 -127 85 32 -64 125 78 15 20
0000d0 5a d0 fd c6 39 7f 81 4c d6 60 1f e0 b2 7b 47 4c
       90 -48 -3 -58 57 127 -127 76 -42 96 31 -32 -78 123 71 76
0000e0 b8 c0 ac 3d 63 7f 22 45 51 1a 81 93 5e 3f fb a4
       -72 -64 -84 61 99 127 34 69 81 26 -127 -109 94 63 -5 -92
0000f0 9d 28 26 e3 44 38 b3 52 3f 43 df 01 c9 39 47 65
       -99 40 38 -29 68 56 -77 82 63 67 -33 1 -55 57 71 101

model/basenet.12.3_conv/Conv2D i1 [256, 1, 1, 256]
000000 d6 00 d5 ea e7 1a 21 f8 df dd 1c fc e3 fa 27 fb
       -42 0 -43 -22 -25 26 33 -8 -33 -35 28 -4 -29 -6 39 -5
000010 e0 0f 01 e8 d9 f2 b3 00 22 cf 0f 26 c7 ff 3a f2
       -32 15 1 -24 -39 -14 -77 0 34 -49 15 38 -57 -1 58 -14
000020 1f fc ec fb b3 27 ed 16 04 ed 42 1e 24 f3 fa ed
       31 -4 -20 -5 -77 39 -19 22 4 -19 66 30 36 -13 -6 -19
000030 f9 1c e4 f1 15 fb de d4 e5 bc 37 2c 4a 0d ea d8
       -7 28 -28 -15 21 -5 -34 -44 -27 -68 55 44 74 13 -22 -40
000040 14 fb 2d 23 37 c8 41 16 f6 0a 18 dd f2 c8 27 da
       20 -5 45 35 55 -56 65 22 -10 10 24 -35 -14 -56 39 -38
000050 0e 40 41 42 e8 e2 0c 05 ea ee 26 dc 20 d5 c6 d9
       14 64 65 66 -24 -30 12 5 -22 -18 38 -36 32 -43 -58 -39
000060 3a d0 02 d6 fb d7 f9 11 12 f7 e6 e5 e5 dd f7 00
       58 -48 2 -42 -5 -41 -7 17 18 -9 -26 -27 -27 -35 -9 0
000070 fc d7 3f 00 d0 c9 25 d7 e6 fc f4 fd de 1d 39 49
       -4 -41 63 0 -48 -55 37 -41 -26 -4 -12 -3 -34 29 57 73
000080 a9 2d 03 db ef e2 f4 18 17 d1 fd 2c 01 21 f8 e4
       -87 45 3 -37 -17 -30 -12 24 23 -47 -3 44 1 33 -8 -28
000090 47 1a d4 12 f8 63 00 06 f8 1a 11 f6 03 df 01 17
       71 26 -44 18 -8 99 0 6 -8 26 17 -10 3 -33 1 23
0000a0 1f ff 3d 18 2e e7 fb f9 43 fe 25 24 4b 1c ce f3
       31 -1 61 24 46 -25 -5 -7 67 -2 37 36 75 28 -50 -13
0000b0 29 1c 2a df ec bf f2 d2 f5 d8 28 ce e7 d8 be 3e
       41 28 42 -33 -20 -65 -14 -46 -11 -40 40 -50 -25 -40 -66 62
0000c0 c5 d5 ca f1 36 ee 63 4d bf e9 bb 21 46 cb d3 c9
       -59 -43 -54 -15 54 -18 99 77 -65 -23 -69 33 70 -53 -45 -55
0000d0 fe fe 42 03 0a 0c ec 17 42 10 7c de 3b d0 1e af
       -2 -2 66 3 10 12 -20 23 66 16 124 -34 59 -48 30 -81
0000e0 fc 16 0b c3 2f 02 f0 0d 37 f9 f5 19 e7 0b ac cd
       -4 22 11 -61 47 2 -16 13 55 -7 -11 25 -25 11 -84 -51
0000f0 0b ee d6 e9 de 1f 32 21 16 81 27 ff 16 18 23 04
       11 -18 -42 -23 -34 31 50 33 22 -127 39 -1 22 24 35 4

model/cls_0_sep_dconvbias/depthwise i1 [1, 3, 3, 64]
000000 a0 46 a3 86 ff 81 20 5d ee 03 c9 7f 49 e9 13 3a
       -96 70 -93 -122 -1 -127 32 93 -18 3 -55 127 73 -23 19 58
000010 2c 95 d0 2c 10 ea 7f 6e fb 0f 36 db 0d 09 54 8d
       44 -107 -48 44 16 -22 127 110 -5 15 54 -37 13 9 84 -115
000020 fd f0 21 87 31 8c 8a 03 e2 20 4e 7f c1 bc a1 fd
       -3 -16 33 -121 49 -116 -118 3 -30 32 78 127 -63 -68 -95 -3
000030 fb 68 e0 7d 0a c7 b0 07 28 1c fe 45 a3 fe 4e 2a
       -5 104 -32 125 10 -57 -80 7 40 28 -2 69 -93 -2 78 42
000040 7f 9a ad 7f 7f 60 e4 35 11 4a ef eb 47 7d df c9
       127 -102 -83 127 127 96 -28 53 17 74 -17 -21 71 125 -33 -55
000050 42 c5 10 7f 36 d8 58 2b 81 61 81 c4 ef 59 2c cc
       66 -59 16 127 54 -40 88 43 -127 97 -127 -60 -17 89 44 -52
000060 d4 f7 81 72 7f 99 81 3a fc 7f fb 07 b4 e0 24 cb
       -44 -9 -127 114 127 -103 -127 58 -4 127 -5 7 -76 -32 36 -53
000070 d2 14 00 7f 8a 8f a6 f6 43 7f 3a 7f b4 d7 7f 0b
       -46 20 0 127 -118 -113 -90 -10 67 127 58 127 -76 -41 127 11
000080 7a 05 0e 83 c1 fe 7a 4d 7f 32 12 96 16 38 eb 61
       122 5 14 -125 -63 -2 122 77 127 50 18 -106 22 56 -21 97
000090 e3 06 81 31 81 44 ed f0 1c 7f 67 d2 39 67 ec e4
       -29 6 -127 49 -127 68 -19 -16 28 127 103 -46 57 103 -20 -28
0000a0 dc 57 23 b4 46 49 cb 25 c4 0a 3f e4 55 a1 b2 e8
       -36 87 35 -76 70 73 -53 37 -60 10 63 -28 85 -95 -78 -24
0000b0 3c 2d ff 6a 05 f2 5c d1 37 29 62 6b 81 07 d9 7f
       60 45 -1 106 5 -14 92 -47 55 41 98 107 -127 7 -39 127
0000c0 2b e5 8a df d3 03 7f 61 ca 3a d3 1b 19 31 c7 da
       43 -27 -118 -33 -45 3 127 97 -54 58 -45 27 25 49 -57 -38
0000d0 69 8b 0e f2 d0 2a 35 7f 7b 09 6f 81 fd 13 37 81
       105 -117 14 -14 -48 42 53 127 123 9 111 -127 -3 19 55 -127
0000e0 01 da f2 cb 64 81 31 2c db fd c2 3d 16 ed 0a de
       1 -38 -14 -53 100 -127 49 44 -37 -3 -62 61 22 -19 10 -34
0000f0 75 7a 0f 5c 0c e1 81 d7 54 2e f1 70 0a e4 1e 57
       117 122 15 92 12 -31 -127 -41 84 46 -15 112 10 -28 30 87

model/cls_0_sep_convbias/Conv2D i1 [6, 1, 1, 64]
000000 0c 2b 04 08 03 02 08 b6 03 ed fc eb fc 3d 07 fa
       12 43 4 8 3 2 8 -74 3 -19 -4 -21 -4 61 7 -6
000010 14 17 16 2c 06 23 12 04 fc 37 f3 28 df f5 ff fe
       20 23 22 44 6 35 18 4 -4 55 -13 40 -33 -11 -1 -2
000020 d2 ed 02 12 47 41 f8 7c e6 30 46 0b ff 1f 0a fb
       -46 -19 2 18 71 65 -8 124 -26 48 70 11 -1 31 10 -5
000030 fe 55 d8 47 2b 21 09 eb 7f 25 c7 1a ff 13 0f 09
       -2 85 -40 71 43 33 9 -21 127 37 -57 26 -1 19 15 9
000040 f5 cb fb f8 02 fe fe 54 fc 0a fa 0b 0a c8 ee fa
       -11 -53 -5 -8 2 -2 -2 84 -4 10 -6 11 10 -56 -18 -6
000050 fd eb f7 d4 ff d6 ea fe 11 c9 13 d8 11 17 fb 05
       -3 -21 -9 -44 -1 -42 -22 -2 17 -55 19 -40 17 23 -5 5
000060 2f 07 f5 de b2 c5 05 82 19 d1 c3 f3 ef cc 08 09
       47 7 -11 -34 -78 -59 5 -126 25 -47 -61 -13 -17 -52 8 9
000070 f6 a6 2d ab c4 d6 01 22 81 e1 47 d8 08 f0 ea fc
       -10 -90 45 -85 -60 -42 1 34 -127 -31 71 -40 8 -16 -22 -4
000080 1b f2 f8 ff 09 fe ec e9 16 50 17 00 1c 26 00 fa
       27 -14 -8 -1 9 -2 -20 -23 22 80 23 0 28 38 0 -6
000090 ec e6 1c 1a f8 1f 10 30 f4 44 fa 07 06 01 14 01
       -20 -26 28 26 -8 31 16 48 -12 68 -6 7 6 1 20 1
0000a0 e2 e1 d3 0f 5d 27 18 3a e1 47 37 f0 2a 3c 04 fc
       -30 -31 -45 15 93 39 24 58 -31 71 55 -16 42 60 4 -4
0000b0 07 59 dd 14 26 37 01 e9 7f 8a c7 39 f7 44 ef 02
       7 89 -35 20 38 55 1 -23 127 -118 -57 57 -9 68 -17 2
0000c0 d8 09 ff fc f8 04 13 1f eb a9 ed f3 eb db 07 02
       -40 9 -1 -4 -8 4 19 31 -21 -87 -19 -13 -21 -37 7 2
0000d0 0c 26 e8 da 13 e4 f6 c2 01 bd 0e ff fc 09 e6 01
       12 38 -24 -38 19 -28 -10 -62 1 -67 14 -1 -4 9 -26 1
0000e0 17 24 24 f3 a5 dd e8 c1 1b b9 d1 08 df b8 fe 07
       23 36 36 -13 -91 -35 -24 -63 27 -71 -47 8 -33 -72 -2 7
0000f0 f8 a7 28 f7 dd d0 f8 1a 81 6a 3f d3 02 b5 0b 04
       -8 -89 40 -9 -35 -48 -8 26 -127 106 63 -45 2 -75 11 4
